mlp_classifier.pt (torch, 52244 bytes, 8 tensors)

net.0.weight f4 [128, 13]
0.0305188 -0.17020826 -0.020255126 -0.032958567 0.2780801 0.06416232 -0.07343306 0.3002464
-0.23532337 -0.29076147 -0.7481946 0.015966516 0.035222866 -0.008981231 0.13446525 0.1650502
-0.015153716 0.05785676 -0.03454147 -0.4116162 0.18407665 -0.18786713 0.0027681356 -0.6660451
0.06588148 -0.12065696 -0.047397118 0.22157566 -0.17184962 0.08035001 -0.18976577 -0.1044193
0.24723783 -0.50451976 0.009230119 0.46063447 0.16772796 0.089965396 0.0063537466 -0.0009111467
0.06940718 -0.048432305 -0.44239652 0.17951646 0.099970855 0.020091943 0.30450848 -0.13399488
-0.18201639 -0.24124297 0.012918419 0.051417757 0.029640362 0.09524712 -0.12384031 -0.11840803
0.1807648 -0.107335836 -0.18428446 0.18805808 0.006818254 0.0350671 0.03711138 -1.4865367
0.004487148 -0.042556245 0.047038257 0.13736162 0.1926119 -0.06988685 0.05761409 0.11248017
-0.47501627 0.03681651 0.3653746 -0.03356316 0.12885869 0.02352694 -0.009437868 0.09038499
0.02843349 -0.02358026 -0.32660997 0.19381036 0.27322316 -0.45576996 0.044954866 0.4295781
-0.00026485947 0.06872261 0.007747171 0.098526984 -0.2752375 -0.039940644 -0.011716687 0.25435442
-0.023399688 -0.093893826 0.21015875 -0.12612455 -0.17253411 -0.7662525 0.15932538 -0.027392816
-0.20520504 0.1677793 0.15129507 0.22783512 -0.24293329 -0.13583732 0.22892752 -0.14763904
-0.015483131 0.22483686 0.017475076 0.061099555 0.0407773 -0.07445843 0.039735015 -0.020890478
0.30287203 0.065541275 -0.1367086 0.031583656 -0.2457715 0.045431573 -0.08649634 0.19464633
0.25148866 -0.0059584617 0.015630174 0.05065569 -0.1285845 0.24731961 -0.062081486 0.06023463
-0.17418376 0.21603534 -0.052658286 0.098987214 0.09308786 0.053257655 -0.015166355 0.19851053
-0.1303549 0.058426335 -0.45225307 0.24997483 0.23839265 -0.05928835 -0.19572711 -0.08643095
-0.04905481 -0.61735874 0.007834337 -0.018718226 -0.12440748 -0.017347675 -0.09762014 0.028385887
-0.04951103 -0.01784086 0.005848787 -0.22997159 0.040914603 0.06201178 0.05386701 0.053211957
-0.26594856 0.10380335 -0.0065500718 0.016629769 0.041588362 -0.12206301 0.10206626 -0.15391272
0.33004722 0.07651818 0.15983227 0.0019858615 -1.0312097 -0.022810275 0.13491471 -0.06992014
0.056621596 -0.13107754 -0.056553423 0.054712176 0.205181 -0.21568434 0.020838642 -0.16539931
0.05341565 0.1745207 -0.050276913 -0.24350105 -0.13973525 0.17533085 -0.051667623 0.07216791
-0.055836875 0.17185703 -0.4514131 -0.02455953 0.31767356 0.14208084 0.06062248 0.01999869
0.10920694 -0.037421085 0.09025869 -0.059548326 0.14800091 0.06724076 -0.29699692 0.4444699
0.05535936 -0.13307716 -0.06910553 -0.31135443 0.014950995 -0.3446302 -0.17532068 -0.24621142
0.20352182 -0.14371252 -0.076437555 0.22526607 -0.39687672 0.059239246 -0.16411653 0.025129339
0.09295161 0.19796924 -0.10257716 -0.05030618 -0.050112613 -0.18952146 -0.03886495 0.22705287
-0.2322699 0.057926983 0.12344439 -0.087827355 0.1473859 -0.9129695 0.041188825 -0.21707359
0.23623702 0.10190071 -0.08661509 -0.12221481 -0.30796203 0.16821584 -0.31818467 0.076839976
00000000: 9002 fa3c 134b 2ebe 14ee a5bc 90ff 06bd
00000010: 8460 8e3e 8967 833d 1264 96bd e5b9 993e
00000020: 9cf8 70be b0de 94be ae89 3fbf 36cc 823c
00000030: da45 103d 0326 13bc 42b1 093e eb02 293e
00000040: 4b47 78bc 36fb 6c3d 5b7b 0dbd 5cbf d2be
00000050: 977e 3c3e 3e60 40be 9c69 353b ef81 2abf
00000060: dfec 863d ff1a f7bd 7b23 42bd bbe4 623e
00000070: 59f9 2fbe 8c8e a43d f551 42be c9d9 d5bd
00000080: ea2b 7d3e 3528 01bf ed39 173c 48d8 eb3e
00000090: e1c0 2b3e c73f b83d 1733 d03b 05da 6eba
000000a0: 5a25 8e3d f460 46bd cc81 e2be 2ad3 373e
000000b0: 85bd cc3d dc97 a43c 89e8 9b3e f435 09be
000000c0: 8162 3abe 6608 77be c7a7 533c 6d9b 523d
000000d0: 58d0 f23c ec10 c33d fd9f fdbd e97f f2bd
000000e0: 681a 393e e4d2 dbbd 11b5 3cbe 4c92 403e
000000f0: a96b df3b 85a2 0f3d 1a02 183d d646 bebf
00000100: ed08 933b 754f 2ebd 30ab 403d 86a8 0c3e
00000110: 0e3c 453e d620 8fbd c1fc 6b3d 015c e63d
00000120: 5535 f3be e9cc 163d 6112 bb3e 8679 09bd
00000130: 88f3 033e 92bb c03c 4aa1 1abc c41b b93d
00000140: 5aed e83c 642b c1bc 6c39 a7be 3976 463e
00000150: e8e3 8b3e ae5a e9be 9822 383d a9f1 db3e
00000160: d6dc 8ab9 71be 8c3d fbdb fd3b 84c8 c93d
00000170: eeeb 8cbe cd98 23bd 59f7 3fbc be3a 823e
00000180: b4b0 bfbc 684b c0bd db33 573e cb26 01be
00000190: c8ac 30be 2029 44bf 3126 233e e666 e0bc
000001a0: 4521 52be 56ce 2b3e 18ed 1a3e 9c4d 693e
000001b0: 81c3 78be f018 0bbe fa6b 6a3e b02e 17be
000001c0: f5ac 7dbc a23b 663e e427 8f3c 8743 7a3d
000001d0: 1906 273d a97d 98bd 2fc1 223d 8222 abbc
000001e0: 0b12 9b3e 813a 863d 57fd 0bbe dd5d 013d
000001f0: 86ab 7bbe 7516 3a3d fe24 b1bd 5e51 473e
00000200: 1fc3 803e 333f c3bb da0a 803c 577c 4f3d
00000210: a8ab 03be 5a41 7d3e 2849 7ebd 96b8 763d
00000220: 3a5d 32be 5e38 5d3e 37b0 57bd cfb9 ca3d
00000230: d9a4 be3d b324 5a3d 4e7c 78bc 5846 4b3e
00000240: c17b 05be 7450 6f3d b78d e7be 67f9 7f3e
00000250: 341d 743e 57d8 72bd b06c 48be b602 b1bd
00000260: b2ed 48bd 390b 1ebf 975b 003c f756 99bc
00000270: 59c9 febd b61c 8ebc 11ed c7bd 8589 e83c
00000280: 14cc 4abd ff26 92bc 2ea7 bf3b ac7d 6bbe
00000290: 1296 273d 1000 7e3d a7a3 5c3d c8f4 593d
000002a0: 692a 88be da96 d43d fca1 d6bb 273b 883c
000002b0: 8f58 2a3d 2cfc f9bd 1e08 d13d 4c9b 1dbe
000002c0: f3fb a83e 90b5 9c3d 12ab 233e 3a25 023b
000002d0: aefe 83bf 9ddc babc 1527 0a3e 4a32 8fbd
000002e0: 0cec 673d 3139 06be 90a4 67bd e019 603d
000002f0: f81a 523e 5bdc 5cbe cdb5 aa3c 705e 29be
00000300: 5eca 5a3d 8eb5 323e 2aef 4dbd 5758 79be
00000310: c216 0fbe ee89 333e 6ea1 53bd c5cc 933d
00000320: 35b5 64bd 4afb 2f3e 9e1f e7be 1131 c9bc
00000330: 1ca6 a23e a47d 113e 474f 783d 4bd4 a33c
00000340: e3a7 df3d da46 19bd 8cd9 b83d f2e8 73bd
00000350: 8d8d 173e 86b5 893d fb0f 98be 8f91 e33e
00000360: 7fc0 623d 6145 08be 3387 8dbd d969 9fbe
00000370: 05f5 743c 5f73 b0be 4487 33be d91e 7cbe
00000380: 0668 503e 6029 13be 4b8b 9cbd 26ac 663e
00000390: 6d33 cbbe daa4 723d 2a0e 28be 0bdc cd3c
000003a0: 6a5d be3d 73b8 4a3e f913 d2bd da0d 4ebd
000003b0: e242 4dbd ea11 42be db30 1fbd 8c80 683e
000003c0: 29d8 6dbe d844 6d3d 6ad0 fc3d d4de b3bd
000003d0: 54ec 163e 5fb8 69bf 9db5 283d 8a48 5ebe
000003e0: 1ee8 713e 52b1 d03d 4163 b1bd c24b fabd
000003f0: 33ad 9dbe c640 2c3e 1ae9 a2be 475e 9d3d

net.0.bias f4 [128]
-0.4187535 0.035138372 0.30447417 -0.49171367 0.17597912 -0.083486594 0.22748725 -0.26872453
-0.029025467 -0.03885631 0.1117148 -0.36704594 0.05715088 -0.09987932 -0.102324754 0.2886178
-0.48119026 0.068954065 0.103375204 0.04322744 0.058694936 -0.31519338 -0.00995399 -0.02111026
-0.017621782 -0.19615903 0.27457812 0.37003815 -0.02133141 -0.0061996724 -0.07509477 -0.24823782
0.009348661 0.11140388 -0.0712576 0.46969655 0.21623482 -0.40916854 -0.18786815 -0.19788617
0.31215987 0.30229852 0.13382517 -0.23397233 -0.13123247 0.09401703 0.14482273 -0.0037133046
-0.3731243 -0.3539577 -0.06945504 -0.32774174 0.2739814 0.26527616 0.22050962 -0.526883
0.059840888 -0.09590007 0.09150134 0.25266695 -0.461773 -0.3738208 -0.05756451 -0.23427387
0.022541288 0.11093197 -0.09383318 -0.122086115 -0.045814935 -0.05266052 -0.09457296 0.042704046
0.1992999 0.33337268 0.2387481 -0.24639297 -0.28133136 -0.3485176 -0.015833087 -0.28758374
-0.05439554 -0.19804631 -0.36959022 0.05867817 0.06987274 -0.5349551 -0.61722887 -0.24019888
0.012364076 0.3653762 -0.41980538 -0.040241085 -0.2020007 0.22516526 -0.13985269 0.12691465
-0.4265462 0.33708665 0.32996023 -0.529676 -0.0063201487 -0.11392219 0.008267344 -0.5443563
0.2219283 0.20069878 -0.10156007 -0.033832114 -0.1420925 -0.0001258638 -0.028477 0.45560125
-0.20481244 -0.08941954 -0.4749594 -0.17036843 -0.065199986 -0.07591417 -0.30994466 0.13112488
-0.094086565 0.05593611 -0.07787482 -0.17793164 0.10100383 -0.061252255 -0.32364318 0.322474
00000000: dc66 d6be 41ed 0f3d 0ae4 9b3e e5c1 fbbe
00000010: df33 343e 05fb aabd 6bf2 683e 4396 89be
00000020: d1c6 edbc cb27 1fbd bbca e43d 72ed bbbe
00000030: 0b17 6a3d 878d ccbd a48f d1bd b6c5 933e
00000040: 925e f6be ca37 8d3d 61b6 d33d 420f 313d
00000050: 1a6a 703d 0761 a1be 0f16 23bc 6def acbc
00000060: 8e5b 90bc eadd 48be 8195 8c3e a475 bd3e
00000070: 36bf aebc 9f26 cbbb 49cb 99bd 0e32 7ebe
00000080: 202b 193c b827 e43d 81ef 91bd 117c f03e
00000090: a96c 5d3e 8a7e d1be 8260 40be aca2 4abe
000000a0: 6bd3 9f3e dfc6 9a3e 7709 093e 7196 6fbe
000000b0: ce61 06be 008c c03d 694c 143e ea5a 73bb
000000c0: 260a bfbe f239 b5be 723e 8ebd c4cd a7be
000000d0: 4a47 8c3e 47d2 873e 46cd 613e cee1 06bf
000000e0: b81b 753d 4267 c4bd 0e65 bb3d 905d 813e
000000f0: 836d ecbe 7165 bfbe c3c8 6bbd 7de5 6fbe
00000100: 82a8 b83c 4d30 e33d 9c2b c0bd 4908 fabd
00000110: 71a8 3bbd 8fb2 57bd 78af c1bd 70ea 2e3d
00000120: 4615 4c3e d3af aa3e 627a 743e 704e 7cbe
00000130: aa0a 90be e670 b2be 64b4 81bc 2d3e 93be
00000140: dccd 5ebd a7cc 4abe ee3a bdbe 8558 703d
00000150: 7019 8f3d d1f2 08bf b602 1ebf b2f6 75be
00000160: b292 4a3c 9712 bb3e bbf0 d6be d6d3 24bd
00000170: 46d9 4ebe b991 663e 8b35 0fbe eaf5 013e
00000180: 4364 dabe 9f96 ac3e 8cf0 a83e d998 07bf
00000190: 4019 cfbb 0a50 e9bd c173 073c ef5a 0bbf
000001a0: 2c41 633e fb83 4d3e bafe cfbd 8b93 0abd
000001b0: b280 11be 4efa 03b9 9948 e9bc 9144 e93e
000001c0: 5aba 51be 9721 b7bd e12d f3be 1075 2ebe
000001d0: 9287 85bd e378 9bbd 11b1 9ebe 9a45 063e
000001e0: 75b0 c0bd 431d 653d d57c 9fbd b633 36be
000001f0: 19db ce3d a5e3 7abd 8fb4 a5be 501b a53e

net.3.weight f4 [64, 128]
0.010229582 0.10021052 -0.09982785 0.0071255965 -0.13997136 0.046316624 0.017957848 -0.046871457
0.0021019056 0.06318424 0.08854159 -0.016272334 0.042914502 -0.06144608 0.042378582 -0.029250642
0.039149947 0.037584595 -0.13968346 0.03826533 0.11187158 -0.09565081 0.10084895 -0.007877201
-0.17332405 0.082490884 0.040814124 -0.022250012 -0.030734206 -0.0074148905 0.016941153 0.033155013
0.05492206 -0.015321299 0.035684247 0.019367797 0.07973412 0.028934428 -0.077267304 -0.08084349
-0.28400904 -0.07894024 -0.09422547 -0.15414706 0.06081962 -0.039529037 0.05870802 -0.047272228
0.104393445 -0.07208348 -0.1933795 0.021928526 -0.14995126 0.004710512 0.04836809 0.007446717
-0.10912951 0.07960953 -0.029998524 -0.010292429 0.05892483 0.031581506 -0.11715411 0.0047904593
0.15471284 0.034451894 -0.10732315 0.0015002531 0.09128003 -0.039718926 0.07415552 -0.07111482
0.060136538 -0.117291085 -0.0832098 -0.0065375525 0.058533553 0.08505239 -0.014012568 -0.025382368
0.060173474 -0.016877722 -0.03484985 -0.09890952 -0.094775744 0.062119786 -0.032523267 -0.014426088
0.09507367 -0.24042903 0.038571347 -0.03735356 -0.033311132 0.059041925 -0.0722638 -0.0064717787
0.012460502 -0.08697855 0.077918254 0.050082732 0.00013403202 -0.021616612 0.03183896 -0.022334773
-0.061966453 -0.019756753 0.078539826 -0.019534176 0.05538724 -4.4545243e-07 -0.0021384761 0.034688145
-0.11162504 -0.00195494 0.032997042 0.06171717 -0.0045945947 -0.06232658 -0.055049084 -0.02780893
0.012161107 -0.00059042504 0.061203107 -0.058256812 0.06023562 0.025553336 -0.013337508 0.038790736
-0.13741997 -0.19859768 0.07479533 -0.04208117 0.031596728 0.11197766 0.119522765 -0.091075346
0.14158235 -0.008627674 0.0280405 -0.0893154 0.055613115 0.0058579897 -0.08980679 0.07623054
0.08288886 0.10189772 0.076345444 0.04736053 -0.07008823 -0.04939661 -0.19422616 0.11366688
0.021948114 -0.1039659 0.0056419536 -0.04176483 0.066122964 0.046380963 0.10934995 -0.080650575
-0.018744191 0.0182603 0.06998051 0.15603186 -0.041499026 0.020418247 0.0048593655 0.11408631
-0.07916291 0.07880117 -0.07992413 0.035449527 -0.0313513 -0.053453226 -0.089834236 0.023334092
0.034844175 -0.04875922 0.02351886 -0.10411911 0.036414683 0.12498138 0.10079096 -0.09728548
0.10728088 0.017622186 0.009864484 0.088425316 0.0070651085 -0.02847874 -0.06683925 0.03660172
-0.22304288 0.09791121 0.020421064 0.07236354 -0.08828489 -0.055434104 -0.021297097 0.08940938
0.04369186 -0.050777607 0.026078619 0.026765617 0.008044168 -0.0034512742 -0.06797204 -0.01407846
0.04617109 -0.020210525 -0.021191614 0.087066464 -0.013408478 -0.119993284 -0.035366766 -0.09351838
-0.10780414 0.0638527 -0.11633597 0.0067899968 -0.006056581 0.00580075 -0.021592371 0.005644036
-0.0541249 0.05559957 0.051780615 -0.022772474 0.027448084 -0.01906666 -0.010308066 0.046294693
0.020322507 0.044742264 0.02283042 -0.005765787 0.059416205 7.5636715e-14 0.05751898 0.061365195
0.004390192 0.092506155 -0.0130059775 0.022072257 0.035139762 0.038926605 -0.08036484 -0.06369238
0.03666093 0.037917364 -0.0042919116 -0.04042189 -0.14606237 -0.02710975 -0.085087664 -0.0752277
00000000: fa99 273c 2c3b cd3d 8b72 ccbd d67d e93b
00000010: a754 0fbe 80b6 3d3d 561c 933c 49fc 3fbd
00000020: 20c0 093b bd66 813d 4b55 b53d 8f4d 85bc
00000030: 1ec7 2f3d e3ae 7bbd 2a95 2d3d 0b9f efbc
00000040: b25b 203d 4ef2 193d 2e09 0fbe 1bbc 1c3d
00000050: ed1c e53d 92e4 c3bd e589 ce3d 600f 01bc
00000060: dc7b 31be fbf0 a83d b62c 273d a845 b6bc
00000070: 4dc6 fbbc 9cf8 f2bb 2cc8 8a3c 8dcd 073d
00000080: f4f5 603d 3006 7bbc a529 123d 37a9 9e3c
00000090: a44b a33d e507 ed3c 523e 9ebd 4691 a5bd
000000a0: a269 91be 6cab a1bd 49f9 c0bd bad8 1dbe
000000b0: fe1d 793d 33e9 21bd d277 703d 86a0 41bd
000000c0: 3bcc d53d 81a0 93bd 4705 46be 74a3 b33c
000000d0: d38c 19be a35a 9a3b 9e1d 463d 9703 f43b
000000e0: 4b7f dfbd 520a a33d 77bf f5bc 93a1 28bc
000000f0: 2a5b 713d 9c5b 013d 7eee efbd 49f9 9c3b
00000100: 0b6d 1e3e 6e1d 0d3d 3dcc dbbd 24a4 c43a
00000110: 06f1 ba3d 50b0 22bd d9de 973d a6a4 91bd
00000120: bb51 763d 4f36 f0bd e669 aabd f738 d6bb
00000130: e1c0 6f3d f32f ae3d f894 65bc afee cfbc
00000140: 7678 763d 2643 8abc b7be 0ebd 1391 cabd
00000150: c919 c2bd 5171 7e3d 1e37 05bd 665b 6cbc
00000160: fcb5 c23d 0733 76be fdfc 1d3d 0c00 19bd
00000170: 4171 08bd f2d5 713d 0bff 93bd 3711 d4bb
00000180: 2227 4c3c cf21 b2bd 9b93 9f3d 8d23 4d3d
00000190: f28a 0c39 5215 b1bc 9269 023d 6af7 b6bc
000001a0: 89d0 7dbd ead8 a1bc 7dd9 a03d 2306 a0bc
000001b0: bbdd 623d 8426 efb4 ad25 0cbb 2815 0e3d
000001c0: ab9b e4bd 731e 00bb e827 073d 25cb 7c3d
000001d0: 418e 96bb 284a 7fbd 267b 61bd 8ecf e3bc
000001e0: 613f 473c c1c6 1aba 1cb0 7a3d b29e 6ebd
000001f0: a0b9 763d 3b55 d13c 9085 5abc 09e3 1e3d
00000200: d2b7 0cbe 315d 4bbe 4b2e 993d 4e5d 2cbd
00000210: 926b 013d 8b54 e53d 5ac8 f43d b685 babd
00000220: f7fa 103e 165b 0dbc 31b5 e53c feea b6bd
00000230: 94ca 633d 61f4 bf3b 9fec b7bd c21e 9c3d
00000240: a2c1 a93d c0af d03d 005b 9c3d 1dfd 413d
00000250: 6b8a 8fbd 1a54 4abd 39e3 46be 2eca e83d
00000260: 88cc b33c 13ec d4bd 23e0 b83b 9911 2bbd
00000270: 7a6b 873d f7f9 3d3d def2 df3d 212c a5bd
00000280: 6b8d 99bc a096 953c f151 8f3d d1c6 1f3e
00000290: e2fa 29bd 2b44 a73c 503b 9f3b 15a6 e93d
000002a0: 2a20 a2bd 8262 a13d 43af a3bd 8633 113d
000002b0: 396a 00bd c5f1 5abd 03fb b7bd 2327 bf3c
000002c0: c4b8 0e3d bfb7 47bd a0aa c03c 663c d5bd
000002d0: 9027 153d 3df6 ff3d 7e6b ce3d 9c3d c7bd
000002e0: 14b6 db3d 675c 903c a59e 213c 5518 b53d
000002f0: 6d82 e73b 3f4c e9bc 04e3 88bd afeb 153d
00000300: 5a65 64be ac85 c83d 134a a73c 5633 943d
00000310: b5ce b4bd df0e 63bd 4077 aebc 441c b73d
00000320: 3cf6 323d 2efc 4fbd d4a2 d53c 9143 db3c
00000330: b0cb 033c c62e 62bb ed34 8bbd 57a9 66bc
00000340: e61d 3d3d 8b90 a5bc 099a adbc e74f b23d
00000350: 3caf 5bbc 0abf f5bd bedc 10bd 9086 bfbd
00000360: 6bc8 dcbd 34c5 823d 8e41 eebd 9f7e de3b
00000370: 4976 c6bb 3814 be3b 7ce2 b0bc 9bf1 b83b
00000380: 12b2 5dbd 60bc 633d e917 543d 578d babc
00000390: ceda e03c af31 9cbc 2ae3 28bc 819f 3d3d
000003a0: 637b a63c aa43 373d dc06 bb3c edee bcbb
000003b0: 685e 733d 9951 aa29 0699 6b3d 125a 7b3d
000003c0: 9adb 8f3b de73 bd3d 0617 55bc e1d0 b43c
000003d0: b6ee 0f3d 8171 1f3d 5296 a4bd 2771 82bd
000003e0: c529 163d 3d4f 1b3d 2aa3 8cbb 6c91 25bd
000003f0: 6091 15be 4415 debc 7142 aebd fb10 9abd

net.3.bias f4 [64]
0.034984306 0.15784824 0.100888535 0.2544986 0.04918917 -0.19507667 0.16215947 0.04002499
-0.06680291 0.17104645 0.025953788 0.15649731 0.008893124 0.4419146 -0.38860112 0.21677573
0.020447873 0.06217183 0.25880057 -0.0028333743 0.051820964 -0.010231539 0.13068865 -0.012795673
0.12049864 -0.2948663 0.08779306 -0.258282 -0.38283336 -0.1045903 0.071577355 -0.1325541
0.14744297 0.15914552 -0.061787695 -0.14937417 -0.0007519852 -0.33165574 -0.072718576 0.115060516
0.28671354 -0.27848357 -0.014438233 -0.019526863 -0.08412946 0.04543008 0.002129243 0.1362171
-0.059505753 -0.3456635 -0.34317836 0.20923783 -0.041434754 -0.059123255 -0.0123091675 -0.007607187
-0.047154617 0.11470489 -0.034998517 0.13401875 0.1666573 -0.3713941 -0.09114344 0.08600043
00000000: b44b 0f3d f8a2 213e a69e ce3d a44d 823e
00000010: 957a 493d 2ec2 47be 220d 263e 3ef1 233d
00000020: f7cf 88bd cd26 2f3e 0a9d d43c d540 203e
00000030: 77b4 113c a142 e23e baf6 c6be 75fa 5d3e
00000040: 4c82 a73c e4a7 7e3d 8281 843e 22b0 39bb
00000050: 3842 543d 2fa2 27bc 3fd3 053e f1a4 51bc
00000060: fec7 f63d b7f8 96be d9cc b33d 8a3d 84be
00000070: bc02 c4be 7033 d6bd 2697 923d 43bc 07be
00000080: 4afb 163e 0bf7 223e 1815 7dbd 8bf5 18be
00000090: df20 45ba c8ce a9be 7aed 94bd d9a4 eb3d
000000a0: 1ecc 923e 6695 8ebe 578e 6cbc cdf6 9fbc
000000b0: 114c acbd e414 3a3d c58a 0b3b 7f7c 0b3e
000000c0: 4ebc 73bd cefa b0be 13b5 afbe 7142 563e
000000d0: 7db7 29bd 3a2b 72bd 64ac 49bc b645 f9bb
000000e0: 3325 41bd 66ea ea3d 9b5a 0fbd 363c 093e
000000f0: 36a8 2a3e 5e27 bebe 69a9 babd fe20 b03d

net.6.weight f4 [32, 64]
-0.008569 -0.069739364 0.014690796 -0.09181181 -0.0329708 0.12079331 0.08685441 0.08899281
0.22589825 -0.13163885 0.21970968 -0.06728887 -0.07468772 -0.018457241 0.06546559 -0.09269392
0.038372785 -0.010609727 -0.002936549 0.047540013 0.056186806 0.23117757 0.009834207 0.047488615
-0.04936054 0.09883396 0.01195785 0.08327485 0.142031 0.009732746 -0.06543656 0.35405022
0.07608953 0.07400783 0.099196896 0.008996482 0.00010456019 0.10650227 0.11464947 -0.07499006
0.01215313 0.054282844 -0.005652317 -0.007069216 0.26675954 0.113834076 0.06472943 -0.03073187
-0.02504265 0.07603083 0.039068524 -0.16238485 0.21848944 0.23386052 0.008674651 0.01340988
0.2343829 -0.019436242 0.19751866 0.039448485 -0.009993337 0.12310187 0.2978667 0.13715686
0.06058321 0.0019785895 0.3482018 0.036843345 -0.17566663 0.02897459 0.08964479 0.0723762
-0.0017143402 0.18679771 0.04897755 0.2172017 -0.14130354 0.095371366 0.0588895 0.095248766
0.032729227 0.04663018 -0.09635703 0.04802913 -0.16061385 0.024695186 -0.12081072 0.046592787
-0.057758443 0.0701654 0.15303124 0.022863572 0.13803414 0.04872906 0.16677552 0.028235413
-0.13228166 -0.21459603 0.052717466 0.06406812 0.00018131704 0.21078886 -0.027251821 0.094046034
0.068532184 0.14381918 -0.039113823 0.013601255 0.05842753 0.21447639 0.27686864 -0.10733208
0.085682824 0.15022585 0.24833424 0.23415184 -0.005006979 -0.033641033 0.010880262 -0.015566673
0.07185344 0.17202869 0.026998684 0.20168394 0.15138318 0.14497589 -0.03205209 -0.12807137
-0.07362128 0.19781998 -0.03293452 0.27788013 0.018484274 -0.014375847 -0.02871559 0.026251145
-0.074730225 0.056676812 -0.0876243 0.06554849 0.052534007 0.4219488 -0.060631763 0.2684394
0.045268923 0.014886037 0.21532731 -0.020072762 0.064077325 -0.28982013 0.017461153 -0.0745136
0.14558372 -0.058529116 -0.0042889216 -0.1378796 -0.17111698 0.023485119 -0.13940206 -0.0937713
0.122713864 -0.09029629 -0.048261326 0.0077110706 8.38656e-06 -0.14351004 -0.056337614 -0.118877985
0.1804754 -0.025652386 -0.019684317 0.025080934 -0.011329611 0.041271094 -0.042858716 0.12441872
0.021009993 -0.03287104 -0.0725636 0.24063712 -0.10773087 -0.14439353 -0.026691819 0.06189548
-0.19228642 0.0014821277 0.002095484 0.14777249 0.18374209 -0.14873761 -0.015120617 0.098748915
-0.1221169 0.036051285 -0.14279273 -0.13459748 -0.012881253 0.10336612 0.0020968958 -0.055650964
0.10256935 -0.14529642 0.092779696 -0.10406543 -0.019024428 0.026555862 -0.050095174 0.004273562
-0.05027961 -0.0068498105 -0.010854592 0.007474876 0.032449163 0.13543941 0.04241746 -0.017660877
0.030973025 -0.13817228 0.0554894 -0.22642864 -0.20204628 -0.06594142 -0.21489911 0.077059396
-0.035738744 0.14658862 0.044516232 -0.10852065 -0.00019108772 -0.093794316 -0.007255387 -0.21817894
-0.011871625 -0.18665576 0.036949467 -0.016455548 0.014566858 -0.16907984 -0.18218085 0.069568455
-0.07581926 -0.14667098 -0.18378597 -0.18467337 0.1050541 0.08753204 0.02261619 -0.05650469
0.028063908 -0.1467936 0.023806242 -0.091208406 0.0041188975 -0.1423213 0.11266662 -0.0039108414
00000000: fe64 0cbc 83d3 8ebd aab1 703c d507 bcbd
00000010: 640c 07bd 7c62 f73d bae0 b13d dd41 b63d
00000020: df51 673e 56cc 06be 93fb 603e bfce 89bd
00000030: e0f5 98bd a433 97bc d312 863d 4fd6 bdbd
00000040: c82c 1d3d 6cd4 2dbc 1e73 40bb 51b9 423d
00000050: 2324 663d d0b9 6c3e a71f 213c 6c83 423d
00000060: 472e 4abd 7669 ca3d dcea 433c 018c aa3d
00000070: 9370 113e 1876 1f3c 9a03 86bd 1246 b53e
00000080: d4d4 9b3d 6b91 973d be27 cb3d fb65 133c
00000090: 5347 db38 dd1d da3d 57cd ea3d 6394 99bd
000000a0: ec1d 473c b057 5e3d 1237 b9bb e2a4 e7bb
000000b0: b594 883e d721 e93d dd90 843d 67c1 fbbc
000000c0: 3e26 cdbc 0db6 9b3d 5106 203d 3748 26be
000000d0: b2bb 5f3e 2279 6f3e 2020 0e3c 1db5 5b3c
000000e0: 1202 703e c138 9fbc 5542 4a3e bc94 213d
000000f0: 18bb 23bc d51c fc3d fc81 983e d972 0c3e
00000100: 1a26 783d 39ab 013b 8247 b23e 0ce9 163d
00000110: f4e1 33be 1f5c ed3c b097 b73d f939 943d
00000120: b6b3 e0ba e647 3f3e af9c 483d 1f6a 5e3e
00000130: e0b1 10be 1052 c33d 1e36 713d c911 c33d
00000140: 150f 063d 4aff 3e3d d656 c5bd 31ba 443d
00000150: f577 24be 8f4d ca3c 9c6b f7bd 14d8 3e3d
00000160: 1e94 6cbd e1b2 8f3d 39b4 1c3e 634c bb3c
00000170: d258 0d3e 1f98 473d 34c7 2a3e f44d e73c
00000180: d874 07be 10bf 5bbe 45ee 573d 2636 833d
00000190: ec1f 3e39 09d9 573e 363f dfbc 359b c03d
000001a0: 9a5a 8c3d 5645 133e d135 20bd ccd7 5e3c
000001b0: b551 6f3d b39f 5b3e bac1 8d3e ecd0 dbbd
000001c0: 7a7a af3d ced4 193e 554b 7e3e 80c5 6f3e
000001d0: 9611 a4bb 2ecb 09bd 2043 323c 5c0b 7fbc
000001e0: e527 933d 4a28 303e 582c dd3c 3c86 4e3e
000001f0: 3104 1b3e 8f74 143e 0d49 03bd 2425 03be
00000200: c1c6 96bd 5291 4a3e 59e6 06bd 4e46 8e3e
00000210: 556c 973c ac88 6bbc f53c ebbc a40c d73c
00000220: 290c 99bd f225 683d 5e74 b3bd 493e 863d
00000230: e62d 573d ac09 d83e 0359 78bd e470 893e
00000240: e86b 393d 91e4 733c c37e 5c3e a26f a4bc
00000250: f93a 833d 4e63 94be b10a 8f3c 969a 98bd
00000260: e613 153e 3abc 6fbd 158a 8cbb 4f30 0dbe
00000270: 4a39 2fbe dd63 c03c 6abf 0ebe 2b0b c0bd
00000280: 6851 fb3d 43ed b8bd abad 45bd 26ad fc3b
00000290: 00b4 0c37 4cf4 12be 45c2 66bd 4d76 f3bd
000002a0: 8bce 383e f424 d2bc 0141 a1bc 8876 cd3c
000002b0: d59f 39bc e10b 293d 9f8c 2fbd 3ecf fe3d
000002c0: 261d ac3c c9a3 06bd 3a9c 94bd 9469 763e
000002d0: 01a2 dcbd e6db 13be cda8 dabc 1d86 7d3d
000002e0: bbe6 44be f443 c23a 6354 093b ac51 173e
000002f0: e326 3c3e ac4e 18be 77bc 77bc df3c ca3d
00000300: 6d18 fabd 83aa 133d 4238 12be ecd3 09be
00000310: e40b 53bc 9eb1 d33d 136c 093b 44f2 63bd
00000320: e10f d23d 96c8 14be 4803 be3d 4220 d5bd
00000330: 1ed9 9bbc ae8b d93c 9930 4dbd 3d09 8c3b
00000340: fef1 4dbd 6074 e0bb 75d7 31bc ceef f43b
00000350: 6ae9 043d a1b0 0a3e eebd 2d3d 8bad 90bc
00000360: 24bb fd3c 097d 0dbe da48 633d e9dc 67be
00000370: 38e5 4ebe 4c0c 87bd 830e 5cbe 51d1 9d3d
00000380: ca62 12bd 541b 163e a756 363d 1340 debd
00000390: b85e 48b9 3c17 c0bd 99be edbb 4d6a 5fbe
000003a0: 3481 42bc b022 3fbe 5358 173d c9cd 86bc
000003b0: d5a9 6e3c 4423 2dbe 9e8d 3abe e879 8e3d
000003c0: 2147 9bbd eb30 16be 6432 3cbe 041b 3dbe
000003d0: 9b26 d73d 0044 b33d 9745 b93c 7671 67bd
000003e0: 48e6 e53c 1051 16be 4f05 c33c 79cb babd
000003f0: d1f7 863b adbc 11be c2bd e63d 8426 80bb

net.6.bias f4 [32]
-0.027614137 -0.1321318 0.25916326 0.08894078 0.22411093 -0.2763348 0.13613415 0.005569725
0.33410168 -0.065090895 0.1468043 -0.036157165 -0.055630248 -0.046312343 0.3273023 0.101068474
0.1096309 0.2740308 -0.13475959 0.07009914 0.100590244 0.11115533 -0.087144256 -0.024659079
-0.042760313 -0.069483764 0.058448467 0.19864006 0.3319835 -0.2524872 0.08237758 0.08554812
00000000: 0b37 e2bc 8f4d 07be 0cb1 843e 9526 b63d
00000010: 567d 653e c17b 8dbe c066 0b3e 3d82 b63b
00000020: 600f ab3e 604e 85bd de53 163e 8919 14bd
00000030: 8bdc 63bd 03b2 3dbd 2b94 a73e fdfc ce3d
00000040: 2a86 e03d c44d 8c3e 6bfe 09be 2390 8f3d
00000050: 4202 ce3d 68a5 e33d b078 b2bd d601 cabc
00000060: 7025 2fbd 814d 8ebd a967 6f3d 4d68 4b3e
00000070: bef9 a93e 0146 81be 94b5 a83d da33 af3d

net.9.weight f4 [3, 32]
0.12713104 -0.46867254 0.13108687 0.19500935 -0.36450976 -0.38972145 -0.00849993 0.09322021
0.18183243 0.099109516 -0.32261017 0.041635714 0.16499935 -0.492466 0.11885208 0.2172392
-0.4017848 0.1442354 -0.38115358 0.17431168 0.12018873 0.16114779 -0.3046642 0.16582504
-0.11261282 0.14058763 0.16902089 0.21116483 0.106315404 -0.11752068 0.22027947 -0.54270047
-0.17291063 0.06271683 0.15225662 -0.1135728 0.20617557 -0.116837904 0.2664746 -0.35167414
0.18457979 -0.3252318 0.18537569 -0.061568663 -0.39993584 0.014344318 0.1284065 0.100689724
0.20084473 0.14661433 0.19100122 -0.26149532 0.021299025 -0.14996071 -0.16298707 -0.45125428
0.06403553 -0.5744635 -0.019704122 0.21088605 0.13096316 -0.1068893 -0.30097556 0.17504749
0.1197062 0.10761319 -0.5386967 -0.06440758 0.08707084 0.014339905 -0.23122473 0.060771205
-0.26384315 0.11226606 -0.09814938 -0.12056954 0.1406555 0.011383852 -0.48105788 -0.067766346
-0.03990631 -0.3242509 0.22991039 0.03933405 -0.31685293 -0.047564745 -0.045494657 0.20309679
-0.0932423 0.1452171 -0.17950305 -0.4092698 -0.36859033 0.22869305 0.00096229895 0.1732037
00000000: a42e 023e d9f5 efbe a33b 063e 88b0 473e
00000010: 06a1 babe 9289 c7be 4a43 0bbc 3dea be3d
00000020: 4832 3a3e eef9 ca3d 292d a5be 368a 2a3d
00000030: 97f5 283e 8124 fcbe b868 f33d f473 5e3e
00000040: bdb6 cdbe 72b2 133e 9026 c3be c37e 323e
00000050: 8225 f63d ed03 253e f2fc 9bbe 0ace 293e
00000060: 8da1 e6bd 34f6 0f3e d013 2d3e 983b 583e
00000070: e4bb d93d afae f0bd f190 613e 6bee 0abf
00000080: 7c0f 31be ae71 803d 29e9 1b3e db98 e8bd
00000090: b01f 533e b648 efbd 5c6f 883e a20e b4be
000000a0: 7c02 3d3e c884 a6be 20d3 3d3e 6c2f 7cbd
000000b0: 64c4 ccbe 6e04 6b3c fe7c 033e 6a36 ce3d
000000c0: 3eaa 4d3e 1122 163e d395 433e b7e2 85be
000000d0: 4b7b ae3c 4d8f 19be 15e6 26be cd0a e7be
000000e0: 0f25 833d 0a10 13bf 8a6a a1bc 83f2 573e
000000f0: 351b 063e c7e8 dabd 7819 9abe a63f 333e
00000100: 8628 f53d 4e64 dc3d 07e8 09bf 1fe8 83bd
00000110: 3252 b23d ecf1 6a3c 2dc6 6cbe 3aeb 783d
00000120: 7316 87be c0eb e53d 8b02 c9bd 2aed f6bd
00000130: ff07 103e 5683 3a3c 384d f6be 15c9 8abd
00000140: cd74 23bd 3704 a6be a16d 6b3e be1c 213d
00000150: 8c3a a2be 40d3 42bd 9b58 3abd 9bf8 4f3e
00000160: d2f5 bebd cbb3 143e a6cf 37be d08b d1be
00000170: dfb7 bcbe 832e 6a3e ca42 7c3a 505c 313e

net.9.bias f4 [3]
0.058568604 0.08485169 -0.52759105
00000000: a2e5 6f3d b9c6 ad3d 3510 07bf
