mlp_best.pt (torch, 52172 bytes, 8 tensors)

net.0.weight f4 [128, 13]
000000 89 0b 3c 3e e6 30 5d 3e 3b 07 41 3e a9 bd d0 be
       0.18363775 0.21600685 0.18850414 -0.407697
000010 4e 5e 4b 3e a8 55 22 be b0 b8 04 be 4a 62 94 bd
       0.19860193 -0.15852988 -0.12961078 -0.0724531
000020 26 74 4d be f7 e7 05 bb 13 ce 4a bf bd dd 60 3d
       -0.20063838 -0.0020432451 -0.79220694 0.054898966
000030 23 6b 84 bd fb 65 6e 3e 10 3e 1f 3e 59 d4 e6 bd
       -0.06465747 0.2328109 0.15551019 -0.11270971
000040 11 60 37 be e0 86 f6 bc 05 2f 12 3d b5 94 c6 be
       -0.1790774 -0.03009361 0.035689373 -0.3878533
000050 0e bd b7 3e d8 31 ae 3d e9 46 ec bd 4f ce 00 3e
       0.35886425 0.08505601 -0.115369625 0.125787
000060 86 35 43 3e 97 49 6a bc 70 77 11 3c 0c d3 b2 3d
       0.19063386 -0.014299772 0.008878574 0.0873166
000070 6a ab 7f be 67 91 f2 be d9 be 8c 3e 3d 59 96 3d
       -0.24967733 -0.47376558 0.27489355 0.073412396
000080 39 c4 a4 bd ad 9e 94 3e 19 58 af bd 3c ec 82 be
       -0.08045239 0.2902731 -0.08561725 -0.25570858
000090 21 80 94 be 9a 06 11 3e 11 dd e0 3c 8d 9e ce bd
       -0.29004005 0.14162675 0.027449163 -0.10088835
0000a0 75 2e 07 3e 60 da a7 bb 6e 9f 78 3d a2 7e 30 3c
       0.13201316 -0.005122468 0.06069892 0.010772379
0000b0 4a 07 76 3e 60 c8 c3 3d 11 fb 3a be 71 65 5e bd
       0.24026218 0.09559703 -0.18259837 -0.05429596
0000c0 e1 8c 0c be a9 a4 7e 3c c0 ce 26 3e 1e f3 73 bd
       -0.13725616 0.015542188 0.16289806 -0.059558026
0000d0 c7 6b a1 be 8d 0f b9 bc b9 ed 14 3c 47 c8 d6 bd
       -0.3152754 -0.022590423 0.009089881 -0.104874186
0000e0 3a 57 6f 3e 27 34 99 3d 7a ca 52 3e d6 3c 9e bd
       0.23373118 0.074806504 0.20585051 -0.07726447
0000f0 10 ca d4 bd 49 7a 91 be 58 72 4b be 2c 94 40 3d
       -0.10390103 -0.2841361 -0.19867837 0.047016308
000100 51 c2 57 3e fc 6e 35 be 4c c2 ba 3d f9 97 fb bd
       0.2107022 -0.17718118 0.091190904 -0.12284846
000110 95 75 e0 be 74 6f 93 3e fa 20 08 bd 6e 24 f3 3d
       -0.43839708 0.2879597 -0.033234574 0.11872183
000120 a1 6d 60 3e e0 47 47 be bc 1e 39 be ca f9 0b bf
       0.2191682 -0.19461012 -0.1807813 -0.5467802
000130 e0 c3 13 3d 22 a8 d3 3d 4f 91 66 3c 10 13 2d be
       0.036075473 0.10334803 0.01407273 -0.16901803
000140 e6 42 13 be 90 ae 06 be 89 c8 88 3e 17 da b0 3d
       -0.14380988 -0.13152528 0.26715496 0.08635347
000150 c8 52 cc 3d 5f a5 52 3e 19 a5 c8 bd f7 17 db be
       0.09976727 0.20570897 -0.09797115 -0.4279172
000160 56 97 c9 3c e1 a3 53 bf 37 54 15 3c 27 7e 10 bd
       0.024608295 -0.82671934 0.009114317 -0.03527656
000170 32 f8 f2 bc 32 ba 94 be e1 99 ba be 0d 37 d1 3d
       -0.029659364 -0.29048306 -0.36445525 0.10215578
000180 fd e0 35 3d b7 f1 29 3e 21 85 a3 3e 45 20 c6 bb
       0.04440402 0.16596113 0.31937507 -0.0060463273
000190 e9 0b 83 be 39 e3 91 be 1a 40 c5 3d f1 c4 d6 3d
       -0.25595024 -0.2849367 0.09631367 0.10486782
0001a0 f2 57 b6 3d 4d 40 d3 3d 75 77 f7 bd f2 5d 18 be
       0.08903493 0.10314999 -0.120833315 -0.14879587
0001b0 3e 7a eb 3d 5d 0c cd 3d e1 4d 88 be 95 2b 57 bd
       0.11497925 0.10012124 -0.26621917 -0.052531797
0001c0 0e 51 83 3c e2 e6 5e bd 15 4e 9a be f1 0f bb 3c
       0.01602986 -0.054419406 -0.30137697 0.02283475
0001d0 92 71 cb bb 0d 52 51 bc 22 32 06 3d 04 03 11 3e
       -0.006208607 -0.01277591 0.032762654 0.14161307
0001e0 99 76 c5 3b fa 46 40 3e 8a df 21 be 7b 07 80 be
       0.006026101 0.18777075 -0.1580793 -0.25005707
0001f0 49 aa 15 3d 2a 21 4e 3d c2 92 5f bd 82 87 25 3d
       0.03653935 0.050324596 -0.05458332 0.040412433
000200 90 59 97 bf a4 2e 89 3b 67 ee 8d be 8a 0d 45 3d
       -1.1824207 0.004186468 -0.2772095 0.048108615
000210 3a 9a fd 3d 80 f1 c8 3d 54 0a 09 3e 5b ee d5 3d
       0.12382932 0.098116875 0.13382846 0.10445853
000220 87 16 07 bc 58 93 62 be 5f 9d 6c bc fa ae 60 3e
       -0.008245117 -0.2212652 -0.014441817 0.21941748
000230 4e 52 d6 bd bf f2 a1 bc 2c b0 34 3e b7 90 e3 3d
       -0.10464917 -0.01976907 0.17645329 0.111115865
000240 f6 e5 0d 3e 3c 72 9a bd 37 81 65 3e 68 16 c6 bd
       0.13857254 -0.0754132 0.22412573 -0.096722424
000250 1c 46 04 be 0d 82 42 3e 34 e7 a8 be b8 cb ef bc
       -0.1291737 0.18994923 -0.32988894 -0.029271945
000260 fd 09 ac 3e 83 b3 1d 3d 8b bb 43 3d 5f 61 3c 3e
       0.3360137 0.038501274 0.047786277 0.18396519
000270 68 d0 b4 bc 99 98 1e bd 49 f0 6c 3c 1c f0 b2 bc
       -0.022072032 -0.038719747 0.014461585 -0.021843009
000280 db 7e 6b bd 8e 6e 17 3e b2 b1 d5 bc 5a d0 a1 bd
       -0.057494026 0.14788267 -0.026085708 -0.07901068
000290 d8 05 a7 bc af ed 34 bd 43 35 9f bc fc 38 3b bd
       -0.020388529 -0.044171985 -0.019434577 -0.04570864
0002a0 8a c7 40 bd f1 28 86 bd ca ff 84 3e b1 af 7f 3e
       -0.047065295 -0.06550778 0.25976402 0.24969365
0002b0 8b 6d eb 3d 34 f3 4c be 1b af f9 bd 49 2b 3f 3e
       0.11495503 -0.2001465 -0.12191602 0.18668856
0002c0 43 4d 52 be 8d 92 92 3d e7 a4 88 be c6 34 5a 3d
       -0.20537286 0.071568586 -0.2668831 0.053272985
0002d0 a9 80 45 be 98 cd 5a be b4 4d c2 3d a1 f4 71 3d
       -0.19287361 -0.2136749 0.09487477 0.059071187
0002e0 38 dc 49 bc 75 9a a7 3e a6 79 3f be 49 a7 29 be
       -0.012320571 0.3273503 -0.18698749 -0.1656772
0002f0 09 01 70 3e a4 dc 71 3e b2 76 69 3d a8 2f 3e be
       0.23437895 0.23619324 0.056997962 -0.18572867
000300 44 e7 00 3e 18 c7 a4 bf db 8e a2 bb f9 44 9f be
       0.12588221 -1.2873259 -0.0049608774 -0.3110731
000310 64 2f 6c be 85 eb 49 3d 77 06 44 3d 55 14 78 3c
       -0.23064953 0.049296875 0.047857728 0.015141566
000320 19 68 75 be 5a dd 8b 39 05 8d 58 bb 8e 09 c0 3d
       -0.23965491 0.00026677066 -0.0033043039 0.093768224
000330 f6 6b 21 be 67 c1 cc 3d 01 ed 7e 3e 85 cc 5d be
       -0.1576384 0.09997826 0.24895097 -0.2166005
000340 51 79 c5 3d b4 74 69 b8 da 8b 11 3d e9 a9 12 bf
       0.0964228 -5.5660217e-05 0.035533763 -0.5729051
000350 78 62 1e be 49 e9 a9 3e df 1f 5b 3e ed 8c 4b 3e
       -0.1546725 0.33185795 0.21398877 0.19877978
000360 6f a4 90 bc dc 41 a0 be c4 61 05 bf a0 73 b0 b8
       -0.017656533 -0.31300247 -0.52102304 -8.413871e-05
000370 78 fb ec bc b6 4d 21 bd 7b 50 72 3c 29 f7 16 be
       -0.028928503 -0.03938075 0.014789696 -0.14742722
000380 d3 2d d7 be af 49 67 3e a7 d6 f6 3d df 26 0c 3e
       -0.4202715 0.22586702 0.120526604 0.13686703
000390 d7 80 22 3e d1 9a 8c be 7b 17 31 be 58 07 ba be
       0.15869461 -0.27461866 -0.17294113 -0.36333728
0003a0 e0 2b e6 3d 1d 5f 4f bd 6d 1e 04 3e f3 2d f2 3d
       0.11238837 -0.050627816 0.12902232 0.1182517
0003b0 ae 91 c4 3d f4 15 18 3e dd 6c 88 be f7 73 24 be
       0.09598099 0.14852124 -0.26645556 -0.16059862
0003c0 50 e2 33 ba 4a 8c ed bd 3a b8 c1 3d 79 2a 5d 3e
       -0.00068620313 -0.11599024 0.094589666 0.21598233
0003d0 01 ee d8 3c 37 b9 4b 3e 24 40 b4 be e3 d6 5b 3d
       0.026480677 0.19894873 -0.35205185 0.05367173
0003e0 5a b9 fc 3d 6c 58 7d 3c 70 b9 ae be 80 b9 36 3e
       0.123400405 0.015462976 -0.34125853 0.178442
0003f0 dc 04 44 be 40 b7 16 3d 1a 67 3e 3d d9 3c 01 3d
       -0.19142479 0.036795855 0.046485044 0.03155217

net.0.bias f4 [128]
000000 7a 2d 11 bd 87 5c bd 3d 57 a5 e5 be 3f 7f 0f be
       -0.03544376 0.09246164 -0.44852707 -0.14013384
000010 a5 5d 07 be 56 43 40 be fb 6a 97 bd 61 8c 5a bd
       -0.13219316 -0.18775687 -0.07393452 -0.053356532
000020 ce 34 cc bc b1 31 dd 3d 04 a4 fd 3d 15 8c 4b 3e
       -0.024927523 0.108004935 0.12384799 0.19877656
000030 ff 1b f5 bb 79 ba 8c 3d 6c d1 d3 bd 62 d6 1c 3e
       -0.007480144 0.06871504 -0.103426784 0.15316156
000040 65 43 c9 be 47 4a 58 be b8 34 0a bc d0 ab ba 3b
       -0.3930923 -0.21122085 -0.008435421 0.005696751
000050 2a a2 83 bd c2 b9 e8 bd 1a fd 9b bb 6f 75 93 3d
       -0.06427415 -0.113635555 -0.0047603967 0.07200133
000060 c1 c5 b8 bc 49 e0 b2 3e 13 61 57 3e 66 0a 27 be
       -0.022555234 0.3493674 0.21033125 -0.1631256
000070 c5 cb 3f 3d b0 c0 84 be b6 e2 71 be 21 ea 44 bc
       0.04682519 -0.2592826 -0.2362164 -0.012018711
000080 f5 69 41 3e 4d 59 71 be 56 9d bb 3c 3f df 6b be
       0.18888076 -0.23569222 0.022902172 -0.2303438
000090 a3 c2 37 bc 43 2c ad be c6 4b cb 3d f0 62 d6 bd
       -0.011215839 -0.33822832 0.09926562 -0.104680896
0000a0 c1 47 bd 3d ed be 1b 3e cc 1b 88 bc 06 de 98 3e
       0.092422016 0.15209551 -0.016614817 0.2985689
0000b0 7f da 5a be 54 f2 1b be 0b d0 b9 be b0 e9 8a 3d
       -0.21372412 -0.1522916 -0.36291537 0.067828536
0000c0 ee 6f 13 be 9c 98 b7 bc 40 f0 b1 bd d8 eb 89 bc
       -0.14398167 -0.022411637 -0.08688402 -0.016836092
0000d0 77 a0 c9 bd 74 d8 68 3d 0b 48 bc bd f7 96 2c be
       -0.09845059 0.05684705 -0.091934286 -0.16854464
0000e0 39 30 3e be 33 6a 4c 3e e8 2e 8d be 58 67 3f be
       -0.18573083 0.19962387 -0.2757485 -0.18691766
0000f0 ec dd ab bd 5f 6d 0e be 7d 24 71 3e 56 d7 30 be
       -0.083919376 -0.1390891 0.23549075 -0.17269644
000100 77 38 28 bd 85 07 44 be 36 52 4d bd 1e 9b 92 be
       -0.041069474 -0.19143493 -0.05012723 -0.2863397
000110 6e 7e 38 3e f8 00 dd bb 79 25 af bd 3c ad 5e 3e
       0.18016979 -0.0067445002 -0.08552069 0.21745771
000120 c6 47 ee 3d 29 4b d1 3d d6 a8 f9 bc f8 10 6a bd
       0.116347834 0.10219414 -0.030476015 -0.05714509
000130 b9 1e 46 3d 1e e0 45 3e 45 3e ab 3e c5 6e d2 3d
       0.048369143 0.19323775 0.33445945 0.10275034
000140 b8 da 25 be c8 bd a6 be 3b d6 e6 3d ce 53 ae 3e
       -0.16196716 -0.32566667 0.1127133 0.34048313
000150 e9 5b 94 3e e6 9c 78 bd 92 e6 63 3d 20 ef ba be
       0.28976372 -0.060696505 0.05563981 -0.36510563
000160 ff d3 30 bd 08 74 4b 3d 55 10 fc bd 06 f7 15 3d
       -0.043170925 0.049671203 -0.123078026 0.036612533
000170 c9 4f c1 3d 86 7a 88 bd 52 6f b2 bd 38 d8 2b be
       0.09439046 -0.066639945 -0.08712639 -0.167817
000180 70 1f 7d be a3 1e 98 bd 28 da 85 bd 96 d6 b1 bc
       -0.24719024 -0.074277185 -0.06535751 -0.021708768
000190 8f 1e fd 3d 7c 63 3d be 7c 2d 68 3e cf 72 57 be
       0.12359344 -0.18494982 0.22673601 -0.2103989
0001a0 10 62 6a be 8b cd 14 be f7 89 e2 bb 27 76 33 be
       -0.2288897 -0.14531533 -0.0069134193 -0.1752554
0001b0 34 4f 53 be 3d e6 b8 be cb f5 1d 3e 72 60 27 bb
       -0.20635682 -0.36113158 0.15425794 -0.0025539664
0001c0 22 60 71 3e 9a 86 11 3d 9a bd 43 3e e8 30 13 be
       0.23571828 0.035528757 0.19115296 -0.14374125
0001d0 18 57 62 be d6 9d 50 3d 45 3c 1b be d9 b7 57 3e
       -0.22103536 0.050931774 -0.1515971 0.21066226
0001e0 1c a9 88 be d0 f5 ea 3d 92 41 7f 3d e7 30 76 3d
       -0.2669152 0.11472666 0.062318392 0.06010523
0001f0 74 44 9e 3e 2e 60 a1 bd 7f d9 88 bd 71 ad 08 be
       0.309116 -0.07879673 -0.06682109 -0.13347413

net.3.weight f4 [64, 128]
000000 58 d6 10 bd 59 99 d8 3d b9 93 3e bd 16 69 91 bc
       -0.035360664 0.10576124 -0.046527598 -0.017750304
000010 70 b7 91 3d e9 11 0f be 06 27 d0 3d fb 51 9c 3d
       0.07115066 -0.13971676 0.10163693 0.07632824
000020 54 8a 97 bd 84 73 41 b8 68 80 a9 3c 8c 9d de bd
       -0.07399431 -4.6122368e-05 0.020691112 -0.108698934
000030 a7 f6 8b bb ef d8 4a bd 72 ba ac bb 68 1c 7d 3a
       -0.0042713466 -0.04952329 -0.0052712495 0.0009655417
000040 a8 7f 9d bd db b1 4a 3b 54 79 86 bc 50 63 bd bb
       -0.07690364 0.0030928764 -0.016415276 -0.0057796612
000050 47 ac 89 bd 88 e9 6a bd 8f 6c 28 3b b2 ad 8e 3c
       -0.067223124 -0.05735162 0.0025699472 0.017416809
000060 26 cf fb 3d 99 f1 73 bc 0c b8 a9 3d b9 e0 10 bc
       0.1229537 -0.014889144 0.08287057 -0.008842641
000070 0f 43 1c bd 0f d9 8e 3b 04 c5 ab bd 29 e7 d4 bd
       -0.03814989 0.0043593715 -0.08387187 -0.10395653
000080 cd b2 90 bd 48 ea cd 3d b9 78 f7 bd 93 05 bd 3d
       -0.070653535 0.10054451 -0.12083573 0.09229579
000090 45 59 be 3c 79 ce 04 3d d5 e8 f5 bd db 87 4b 3d
       0.023235926 0.03242347 -0.120073 0.04969011
0000a0 ff 86 cd bc c6 0b b2 bb d1 5d 87 3b 52 2b 75 3d
       -0.025088785 -0.0054335324 0.004131057 0.059855767
0000b0 cf 37 b4 3c ad 35 b0 3c f5 25 a9 bd 7e ca f3 3d
       0.021999268 0.02150997 -0.08259193 0.11903857
0000c0 c2 ad 35 be 65 3a a2 b8 df 3c 84 bd 89 c7 19 bc
       -0.17742065 -7.735639e-05 -0.06456923 -0.009385952
0000d0 8b 81 fa bd e0 00 4f 3d 21 dd 95 3d e9 0f bb 3c
       -0.122317396 0.050537944 0.073175676 0.022834735
0000e0 6e b0 05 3c 01 0f 57 bc 57 9d 01 3c e0 86 0f bd
       0.00815974 -0.013126136 0.007911048 -0.035040736
0000f0 5b e5 a3 3d 96 09 ba 3a 7c 52 ed bd 16 59 a2 3d
       0.080027305 0.0014193531 -0.11587998 0.07927148
000100 ea f3 bc 3d 9f 82 83 3d 4f a8 f9 bc ea 31 07 3e
       0.092262104 0.06421398 -0.030475764 0.13202634
000110 72 d0 8e bd 9e 88 5c bd 93 d9 86 bd 6d 6d 5d 3d
       -0.069733515 -0.053841226 -0.06584468 0.054059435
000120 e4 d9 04 3d ee 9a 48 3d a3 ce 96 bc 5f 39 de 3a
       0.03243436 0.048975877 -0.018409079 0.0016954354
000130 34 c1 29 bd e1 03 9b bc b3 1b 10 bc 28 09 fe bc
       -0.04144402 -0.018922748 -0.0087956665 -0.031010225
000140 f2 1c ba 3d fa 60 e1 bb 48 56 1f 3e 4f 77 a2 bd
       0.09087552 -0.0068780156 0.15560257 -0.079329126
000150 85 47 c7 bd 04 d9 94 3d 33 a2 a6 3c 80 38 2f be
       -0.09730438 0.07267955 0.020341014 -0.17111397
000160 f5 88 ff 3c b1 63 ae 3c f1 b8 1b bd 3e ba 96 bc
       0.031193236 0.021287771 -0.03801817 -0.018399354
000170 40 86 90 bd 68 47 64 3b 9a c1 68 3d b8 36 c3 3d
       -0.07056856 0.00348326 0.056825258 0.09531921
000180 76 0f de bc 9c 60 5f 3d a2 85 b7 3d f5 18 1c bd
       -0.027106982 0.054535493 0.08961035 -0.03810974
000190 57 75 37 bd d0 3c 86 3d 70 cf 76 bd 2a bf 50 bd
       -0.04478964 0.06554568 -0.06025642 -0.05096356
0001a0 3f 67 0a be 61 0b 05 bd 69 6f 84 3c b6 71 36 3d
       -0.13515948 -0.032481555 0.016166406 0.044542037
0001b0 76 f5 c2 ba d0 bd 20 bd ac 36 20 3d a8 ec ff 3c
       -0.0014874178 -0.03924352 0.03911464 0.031240776
0001c0 ba 15 a9 bd c2 fa a6 3c e8 7a aa 3d 45 b5 04 3e
       -0.08256097 0.020383243 0.08324224 0.12959774
0001d0 a8 4f da bd d4 05 b8 bc c9 fc c3 bd f0 bd df bd
       -0.106597245 -0.022463717 -0.09569699 -0.109248996
0001e0 50 bb bf bb a4 db 0b 3e b3 3d 0c be 37 2e f2 3d
       -0.005851187 0.13658005 -0.13695411 0.11825221
0001f0 08 69 be bd 86 c8 46 3d ca 24 80 3d 33 54 00 3e
       -0.09297377 0.048531078 0.06257017 0.1253212
000200 72 60 1a 3d 7d e2 c2 bd 8d 5d ac 3d 79 11 d8 3d
       0.037689634 -0.095158555 0.08416281 0.10550208
000210 59 16 8f 3d 16 8b a0 3d 80 4d 89 3d b0 64 6b 3d
       0.06986684 0.078390285 0.06704235 0.05746907
000220 bf 82 c3 bc 5b a2 82 3d 2d 65 12 bd bc 15 a5 3d
       -0.023866056 0.06378623 -0.03574102 0.08060786
000230 b7 15 97 3c 5e 47 4c bd 11 f1 47 3b 35 14 56 3d
       0.018442972 -0.04987275 0.0030508677 0.052265365
000240 56 9f 7f bc 46 49 40 3d 89 39 92 3d 7f 4f c2 bd
       -0.0156019535 0.04694488 0.0713988 -0.09487819
000250 1d a6 93 3d 25 88 e0 bc b5 a0 c0 bc c2 50 ac 3d
       0.07209418 -0.027408669 -0.023514131 0.08413841
000260 19 d2 57 3e 91 9e 47 3d 23 92 86 3d c7 cd c0 3c
       0.2107624 0.048735205 0.06570842 0.023535622
000270 01 fd ad 3d 23 74 06 3e 92 b1 7c bc b0 4f 91 bc
       0.08495522 0.1313024 -0.015423195 -0.017738193
000280 08 ce 88 3d e9 8a c8 bd 74 b5 40 3d c9 8e b1 bc
       0.06679922 -0.0979212 0.047048047 -0.02167453
000290 0d a5 1a 3d da 84 0f bd ec b1 9a 3d 9a 3e 62 3d
       0.03775506 -0.035038806 0.07553467 0.055235483
0002a0 11 42 53 bb 78 be 07 bd b7 7f 1e bb 20 12 54 3d
       -0.0032235424 -0.03314063 -0.002418501 0.051775098
0002b0 bf 65 3f 3d bf dd 19 bd 18 03 51 3d 31 d4 40 3e
       0.046727892 -0.03756499 0.05102834 0.18830945
0002c0 94 ca bf 3c 42 a0 e8 3a c3 0c 01 bd 7f 5a ee 3c
       0.023412026 0.0017747956 -0.03150631 0.029095886
0002d0 c5 43 f8 bb d1 c8 87 3d 9c 8a af bc bf 69 87 3b
       -0.007576438 0.066300996 -0.021428399 0.004132479
0002e0 f3 58 b3 3c 14 08 dd bd 9e 04 d6 3b 69 21 73 bd
       0.021893 -0.107925564 0.006531312 -0.059358034
0002f0 e7 76 42 bb 2e f5 3a bd f8 89 c1 bc 5e 74 29 bd
       -0.0029672922 -0.045643978 -0.023625359 -0.041370742
000300 50 d3 10 3d 00 e3 22 3c 7e 4c a3 3d e2 3f 9e 3d
       0.035357773 0.009941816 0.07973574 0.077270284
000310 17 51 87 3b a0 fb ea 3c 3e 25 7a ba 60 13 1f 3d
       0.0041295397 0.028684437 -0.00095422927 0.038836837
000320 4c 07 b0 3d a6 85 5d bd bf 05 9e 3d 58 c7 06 bd
       0.08595142 -0.054082535 0.0771594 -0.032904953
000330 c7 e6 08 bc 9e b5 32 3e e9 dc c0 3c 09 a0 2d 3e
       -0.008355803 0.17452094 0.023542838 0.1695558
000340 38 d9 65 bd e7 d0 a8 bd 82 6b d5 3d 32 7a 71 bd
       -0.05611536 -0.0824297 0.10420896 -0.058954425
000350 e0 3c a3 bd 19 c8 61 bb 07 63 0d bd 5f a0 15 3d
       -0.07970595 -0.0034451543 -0.034518268 0.036529895
000360 fd 0b 8b bc 9e 48 f7 bc a5 d6 aa bd 4d e9 08 bd
       -0.01697349 -0.030185994 -0.083417214 -0.033425618
000370 7a 5e ce bb ec 9d a6 3c 04 42 bb 3d 2e 70 80 bc
       -0.0062978836 0.020338975 0.09143451 -0.015678491
000380 17 cb 46 3d 4d 5b 24 bd fe 0e 09 bd 3d 64 c9 3d
       0.048533525 -0.040126134 -0.033461563 0.09833572
000390 ed 4b 0f bc 90 7a 13 3d 56 d6 ec bb ce dd 2f 3d
       -0.008746129 0.036005557 -0.0072276993 0.04293614
0003a0 a5 83 5f bd 33 4b 88 3d 3c 9a 8f 3b 47 01 6e 3c
       -0.054568905 0.06654968 0.0043824 0.014526672
0003b0 cb c3 a2 bd a0 ca 31 bd dc 2c 5c 3d 39 5c 02 3e
       -0.07947501 -0.04340613 0.05375372 0.12730493
0003c0 93 79 53 3d 1d 6a 70 bd 3b 73 71 3d 44 66 a4 3b
       0.051629614 -0.058694948 0.058947783 0.005017074
0003d0 81 d9 82 3c e3 1a 03 3d 67 3c a1 3d bd 48 64 3d
       0.015972855 0.032008063 0.07872849 0.05573343
0003e0 bd 8d 22 bd 3a e8 0a 3e 50 33 66 3d 87 11 af 3d
       -0.039685953 0.1356515 0.05620128 0.08548265
0003f0 28 bf 7e 3d 68 a7 4c bd a1 30 7d 3d 2a 6a 7d 3e
       0.06219402 -0.04996434 0.061813954 0.2474753

net.3.bias f4 [64]
000000 0f 0a d0 bd 8e ba f7 bd a8 e4 85 3d b1 2a d6 3d
       -0.101581685 -0.12096129 0.06537753 0.104573615
000010 ae 8f 68 be 6d b8 c9 bd 74 d3 0c 3e 43 2f 3d bc
       -0.2271106 -0.098496296 0.13752538 -0.011546913
000020 a3 1e fd bd 58 04 02 be 62 7b 5a 3d f7 fe 00 3d
       -0.12359359 -0.1269697 0.053340323 0.031493153
000030 a9 08 8d bd 1d 39 9d 3d b9 01 ee 3d 18 46 f7 bd
       -0.068864174 0.07676909 0.11621422 -0.12073916
000040 1c 7d 13 3e ad 46 04 3e 5e 6c f8 3d 8e b6 b9 bd
       0.14403194 0.12917586 0.121300444 -0.09068023
000050 fc c0 ef bc 00 6b d4 3d 9d 7b 0d bc 11 e8 94 bd
       -0.029266827 0.10371971 -0.008635429 -0.07270826
000060 60 14 89 3e b3 89 be 3d 27 15 2b 3e 53 c3 1e bd
       0.26773357 0.09303608 0.16707288 -0.038760494
000070 3f c5 cf 3c 21 5a 2b 3c a0 e1 56 be 08 82 db bd
       0.025362609 0.0104585 -0.20984507 -0.10718161
000080 38 f8 33 bc 88 3c 05 3e 49 e6 fb bc 1e d9 48 3d
       -0.010984473 0.13011372 -0.030749457 0.049035184
000090 cb c8 11 be bc 02 32 be 60 46 29 bd ab 35 4b bd
       -0.14236753 -0.17383856 -0.04132688 -0.04961173
0000a0 1d a5 38 3d 92 a0 80 bd fa 36 1e be da dc 41 3e
       0.04507934 -0.06280626 -0.1545066 0.18931904
0000b0 4f e3 e7 3d 35 55 28 be 61 7f 27 3e 0a f3 43 3d
       0.113226525 -0.16438754 0.16357185 0.047839202
0000c0 62 84 0b 3e d1 d5 ef bd 82 10 d6 bd 6b c1 87 bd
       0.13624719 -0.11710704 -0.10452367 -0.066286884
0000d0 0c e2 19 3e 3d 92 3d be b6 a2 bd bc b6 c6 ba bc
       0.15027636 -0.18512817 -0.023148876 -0.02279983
0000e0 e6 58 f7 3d 71 53 94 bb d1 16 18 3e ff 3c 04 be
       0.12077503 -0.0045265486 0.14852454 -0.12913893
0000f0 99 c8 e5 bd 34 6b 06 3e 62 e5 18 3b ae 8e 82 be
       -0.112199016 0.13126832 0.0023330082 -0.2549948

net.6.weight f4 [32, 64]
000000 27 82 0d 3d 1d 18 00 be ab bb 45 3e 19 ce 63 3d
       0.03454795 -0.12509198 0.19309871 0.055616472
000010 ff a6 01 3e 86 c4 86 bc a2 ee 37 3d 28 e3 91 bd
       0.1266136 -0.016451132 0.044905312 -0.07123405
000020 72 21 db 3d 7c 86 48 3d 21 b6 40 3d 42 eb 01 3d
       0.106997386 0.04895638 0.04704869 0.0317185
000030 3c 2a 21 3e fd 17 45 be 26 6c 0a bd d6 9b 5f bc
       0.15738767 -0.19247432 -0.033794545 -0.013647994
000040 f9 d2 43 bc 4d 50 fb 3d 2d d7 65 3e a1 a8 a6 3d
       -0.011952155 0.122711755 0.22445364 0.08137632
000050 d5 bc 8a bc 43 bb e7 bd ac ab 34 bd 79 95 d1 3d
       -0.016935745 -0.11315014 -0.04410903 0.10233588
000060 61 78 91 39 34 39 00 3d cd 4d 09 3c 42 18 21 bd
       0.00027746244 0.031304553 0.008380366 -0.039329775
000070 40 cf 72 bd 89 70 25 3e f9 51 a2 3c f1 a6 6b 3d
       -0.05927968 0.1615621 0.019814478 0.057532255
000080 08 7d 7a b9 0d a1 6a bd 8e 82 de 3d 01 f5 6c 3e
       -0.00023888436 -0.057282496 0.10864745 0.23140337
000090 51 90 8d 3d d5 66 1f 3e 49 4d b5 bd 6d 55 f0 bd
       0.06912292 0.15566571 -0.088526316 -0.11735044
0000a0 31 01 42 bd 93 25 d0 bd b7 dc 9f bc 2f 0c c0 bc
       -0.047364417 -0.10163417 -0.019514425 -0.02344331
0000b0 cd 9e 9c 3d 49 b5 44 3e f8 a8 8a bd c4 04 bf 3d
       0.07647476 0.1920978 -0.067705095 0.09327081
0000c0 51 3b 35 3e 27 6a 8e bd 07 6e e0 3b 9f 67 53 3e
       0.17698409 -0.06953841 0.006849054 0.20644997
0000d0 dc cc 2d 3e ff c7 68 3d 6e be a5 3d ae 2b 2e 3e
       0.16972679 0.056831356 0.08092962 0.1700885
0000e0 f6 73 46 3e 58 42 5e 3b a2 d1 15 3e e4 33 af bc
       0.19380173 0.0033914056 0.1463075 -0.021387048
0000f0 dd 39 ce 3d bc 9a 43 be 3d 2c 73 3e 51 79 2e 3d
       0.1006963 -0.19101995 0.23747344 0.042596165
000100 07 7f 61 bd 96 bd b6 bd 97 f2 9a 3d d8 fb 03 3c
       -0.055052783 -0.089228794 0.075658016 0.00805565
000110 66 27 74 bc 40 7c 95 bd 0d a3 94 3d 9a e1 15 bb
       -0.014901971 -0.072990894 0.07257662 -0.0022870065
000120 e6 12 95 bc 0e bb 0d bd e1 90 8a bc c9 93 87 3d
       -0.018197488 -0.034602217 -0.016914787 0.06619985
000130 40 77 9a bc 2f ff e1 bd 8d df 80 3d 7b e5 10 bc
       -0.018855691 -0.110350005 0.06292639 -0.008843775
000140 8c 42 50 3d b2 c3 a0 3d 2e 13 b2 3d 42 49 d4 bd
       0.050844714 0.07849826 0.086950645 -0.10365535
000150 e1 9d f8 bd cc 11 1b bd be f7 07 3c 7f e8 7f bc
       -0.12139488 -0.03785877 0.008298812 -0.015619396
000160 9e de 74 3d 8a 26 44 3d e9 80 58 3d d5 70 f3 bd
       0.059782617 0.047888316 0.052857313 -0.118867554
000170 37 c5 e7 bc 35 f6 a7 bb 85 0a 96 bd bb c1 b1 3c
       -0.028292282 -0.0051257857 -0.07326225 0.021698823
000180 24 20 c5 3a b6 c8 03 3d 3e b1 d8 3c 2c 34 ac 3d
       0.0015039486 0.032173835 0.026451703 0.084083885
000190 0d a9 07 be 27 aa 9d bd 17 36 f9 bd 58 09 93 bd
       -0.13248082 -0.076984696 -0.1216852 -0.071795166
0001a0 24 a5 c3 3b 4c 7d 6a bd e5 4e 11 be c0 9e 17 3d
       0.005970614 -0.0572484 -0.14190252 0.03701663
0001b0 86 48 82 3d 49 9b e5 bc d4 c5 cd ba 80 2f 23 bb
       0.06361489 -0.028028147 -0.0015699216 -0.0024900138
0001c0 fc 0f b8 3d 21 c6 9b bd 12 ec 52 bd 40 6c 8a 3d
       0.08987424 -0.076061495 -0.051494665 0.06758928
0001d0 8c 27 b8 3d 06 90 95 3c f6 bb e1 3b 95 ca 24 3b
       0.08991918 0.018257152 0.006888862 0.0025145162
0001e0 e9 13 8d 3d b4 06 aa b8 92 1f a1 3d 9c c9 03 bc
       0.06888563 -8.10748e-05 0.0786735 -0.008043673
0001f0 af 5a 99 bd 52 7b 35 bd 73 c9 1b 3e 66 a2 8a 3c
       -0.07488 -0.04430706 0.15213566 0.01692314
000200 56 eb 1a 3d b2 fc f9 3d 22 de c1 3d 9f 7e f6 3d
       0.03782209 0.12206401 0.094661966 0.1203587
000210 d7 1c b2 bd b2 d5 a8 3d ee 9b 6b 3d c0 87 31 bd
       -0.08696907 0.08243884 0.057521753 -0.043342352
000220 88 f1 e7 bd cf bb 1a be ce b7 63 3e 2c 62 7e 3d
       -0.11325365 -0.15110706 0.22238085 0.062105343
000230 5f b2 01 bd ed 18 ca 3d ef ef 80 3e 34 e0 84 bd
       -0.03166425 0.098680355 0.25183055 -0.06488076
000240 06 a6 92 bd e6 b5 b2 3d d8 f1 aa bd b2 0b ff 39
       -0.07160573 0.087261006 -0.08346909 0.00048646104
000250 60 37 22 3d 3a cd 9d ba 9b c0 db 3d e2 74 8b be
       0.03960359 -0.0012039312 0.10730096 -0.27237612
000260 47 10 6b 3e 42 ba dd 3a 08 1e ea 3d b4 ce c6 3d
       0.22955428 0.0016916471 0.11431509 0.09707394
000270 55 b8 c0 bc 59 f7 e1 bd d9 85 42 be 47 9e 57 3d
       -0.023525396 -0.11033506 -0.18996371 0.05264118
000280 77 f5 57 bb d4 20 16 3e 90 0d 80 3d 1d ce 33 bd
       -0.0032952705 0.1466096 0.06252587 -0.043897737
000290 d7 5f 9a 3c f5 15 58 bd 0f 7f fd 3d 27 f5 5e 3a
       0.018844528 -0.052755315 0.1237775 0.00085051585
0002a0 79 f9 97 3c 31 43 09 3e 7b 7f b7 3c dd fc 62 3d
       0.018551575 0.13404538 0.022399655 0.05541693
0002b0 c1 71 ef bd ae 11 ae bd e4 d8 97 3d 3f 2d f6 3d
       -0.11691619 -0.08499466 0.074144155 0.12020349
0002c0 33 61 81 bd 44 ac 15 bd 24 83 f4 3d 7f c4 2b be
       -0.063173674 -0.03654124 0.119390756 -0.16774176
0002d0 fa 56 1c bd fe 6e 3e be b2 16 d9 bd 3c a5 54 bd
       -0.038168885 -0.18597028 -0.10600032 -0.051915392
0002e0 ec ad ad 3d 57 a4 81 ba b8 b4 30 bd 76 07 1e be
       0.084804386 -0.0009890896 -0.043141097 -0.15432534
0002f0 ef 00 ba 3c 22 9b 6f bd 4f d4 9a 3d f6 99 3c be
       0.022705523 -0.058497556 0.07560026 -0.18418106
000300 00 c5 8d bd ed 2e b9 bb 9b 86 bd 3c 02 2a c9 bc
       -0.069223404 -0.005651346 0.023135474 -0.024556164
000310 55 e9 e3 bc 1e 7e b7 bd 8b b7 ce 3d e6 c1 57 3d
       -0.027821222 -0.08959602 0.10093602 0.05267515
000320 5e d5 b2 3d 12 6f 1f bd 51 69 b3 bd ed a3 a6 3d
       0.08732103 -0.038924284 -0.08760322 0.08136735
000330 6a 1d e0 bd 23 a0 5f be eb 95 10 bc b3 0c 91 bd
       -0.1094311 -0.21838431 -0.008824806 -0.070825
000340 82 b9 8a 3b d1 b4 58 3d 7f c3 15 3e 57 6d 17 be
       0.00423354 0.052906815 0.14625357 -0.14787804
000350 b3 a3 b6 bc dd 8e b8 3d dc 6f 69 3d b9 ff 7e 3d
       -0.022294855 0.09011624 0.056991443 0.062255595
000360 23 06 96 3d 7b bf bb bb 74 c1 6e 3d 38 1d c3 bd
       0.07325389 -0.0057296134 0.05828996 -0.095270574
000370 60 c6 ff bd d7 b9 d7 bd d8 f5 37 bd 82 1c 84 3d
       -0.12489009 -0.10533493 -0.04491219 0.0645075
000380 23 1a 17 bb 66 0e 56 bd 4e 24 cf bc 60 4f 4c 3e
       -0.002305635 -0.052259825 -0.025285866 0.19952154
000390 31 8b b0 bd f2 8e ba bd 63 67 02 be 95 5e 25 be
       -0.08620299 -0.09109296 -0.12734751 -0.16149361
0003a0 dc ff 22 3c 53 f1 da bd 36 17 c2 bd 91 fe 8e bd
       0.009948697 -0.1069056 -0.094770834 -0.069821484
0003b0 71 da ce 3d 43 4d e1 bd a7 3a ca 3d 4c 32 82 3d
       0.10100258 -0.11001065 0.09874468 0.063572496
0003c0 9d e2 2f 3e 0a 8b d2 bb 53 72 ab bb 8a aa cf 3b
       0.1717629 -0.006425266 -0.0052321344 0.0063374685
0003d0 61 6c ca 3c 46 36 14 be 74 22 bc bd 6d e2 bd 3d
       0.024709882 -0.14473829 -0.09186259 0.09271703
0003e0 c7 39 fe 3d 60 4a f9 b8 68 f8 0b 3e 69 d3 b7 bd
       0.12413364 -0.00011887099 0.13668978 -0.0897587
0003f0 29 6b 2f be 9d aa bc 3b 4e f4 00 3e bb ed 85 bd
       -0.17130722 0.0057576434 0.12593195 -0.06539484

net.6.bias f4 [32]
000000 14 b4 aa bc c2 77 8c 3d 49 d2 2d 3e dd 49 7d 3d
       -0.020837821 0.068587795 0.16974749 0.06183802
000010 d0 31 57 bd ff 20 7c 3e 35 62 82 be c0 ea a8 3c
       -0.05253774 0.24621962 -0.2546555 0.02061975
000020 e7 cf 17 3e 3e 71 cd 3b bf 8a 8b 3e 6e 67 15 bd
       0.14825402 0.006269603 0.27254292 -0.03647559
000030 df 74 9a bd 42 60 2f be 3c 56 06 be 05 d5 02 3e
       -0.07541823 -0.17126563 -0.13118833 0.12776573
000040 1c fc 56 3d 93 91 2b be cd ea c4 3d 2d 6c 80 bd
       0.052486524 -0.16754751 0.09615097 -0.06270633
000050 1d 46 00 be bc c1 08 bd 0a e5 c5 3c 48 2e 29 3e
       -0.12526746 -0.033387884 0.024157066 0.16521561
000060 97 06 37 3e 50 76 92 3d be b5 af bd 1a 1a dd bd
       0.17873608 0.071514726 -0.085795864 -0.10795994
000070 fb 62 ab 3d 8a ff 90 3d e4 d9 fc 3d fa 8f 34 bc
       0.083684884 0.0707999 0.12346247 -0.011020655

net.9.weight f4 [3, 32]
000000 92 85 dd be ba aa 1a be 0e 10 4c 3d 6e c1 84 be
       -0.4326597 -0.1510419 0.04982 -0.25928825
000010 6e 36 bf bd ba eb 21 3d f5 25 92 be 8f 52 09 3e
       -0.093365535 0.039531447 -0.28544584 0.134104
000020 85 4d 76 3d 6b 51 3a 3e fd f1 2d 3e b2 34 b8 bd
       0.060132522 0.18195121 0.16986842 -0.08994426
000030 8f 46 1a be 46 dc 73 be 84 7f 67 bc 1c 81 03 bf
       -0.15065978 -0.23814496 -0.014129523 -0.5136888
000040 a5 58 48 3e 3c 8d 5b be 19 9b 02 3d 18 6a ce be
       0.19565065 -0.21440595 0.031886194 -0.40315318
000050 25 51 f1 be a2 0e 91 3c 7c f5 20 3e 05 5c 24 3e
       -0.4713222 0.017707173 0.15718645 0.16050728
000060 f6 d0 c2 3d 1c 88 16 3e 83 bc f3 be 01 7e 02 be
       0.095125124 0.14700359 -0.4760476 -0.12743379
000070 8c 61 5d 3e e7 0c 13 3e b1 b7 a6 3c 55 ba 83 3d
       0.21619242 0.1436039 0.020351263 0.064320244
000080 dc 05 a8 3d 30 0e 04 3d 84 9d 7f 3c 81 45 58 3e
       0.082042426 0.032240093 0.0156015195 0.21120264
000090 7f 2d a7 bc 15 f3 1f 3e e0 64 93 bd 1d 5d 25 be
       -0.020407436 0.15620072 -0.07196975 -0.16148801
0000a0 8a ed 10 3d c4 1b b8 be 8b 22 12 3e 4e 0a 64 3e
       0.035382785 -0.35958683 0.1427099 0.22269556
0000b0 13 5e 90 bd f1 d2 eb bd a0 43 19 3d 9b 2f 8d 3d
       -0.07049193 -0.11514843 0.037418008 0.06893846
0000c0 4e a2 a9 be ab d7 1d be 0b c7 eb be ee 8f f8 3d
       -0.3313164 -0.15414302 -0.46050295 0.121368274
0000d0 a3 ed 25 3e b7 f0 54 be 11 23 0b 3e d0 ab 1e 3e
       0.16203932 -0.2079495 0.13587596 0.15495229
0000e0 07 72 3a 3e 2b c5 01 3e 57 7a bd 3b 15 e0 0f be
       0.1820756 0.1267287 0.0057824063 -0.14050324
0000f0 d7 96 9c be be 42 ed be 12 71 b0 be ef 07 53 be
       -0.30583832 -0.46339983 -0.34461266 -0.20608495
000100 f3 37 ed 3d f1 b6 c9 bd 95 7f c0 be ea f8 d5 bc
       0.11582937 -0.098493464 -0.37597337 -0.026119668
000110 b7 4c 11 3e 17 b8 1f be e0 cb 30 3d 43 93 15 be
       0.1418942 -0.15597568 0.04316318 -0.14606957
000120 e3 fd c9 be 5a 60 0a 3e f4 ab 44 be 60 b2 18 bb
       -0.39451513 0.13513318 -0.1920622 -0.002329968
000130 e4 ff 1c 3e ea 70 63 3d 47 ce 6b 3e c5 d7 a1 ba
       0.1533199 0.055527605 0.23027907 -0.001234763
000140 6b a2 42 3e 25 b4 1a 3c f4 bf 37 3b bd 20 b1 3d
       0.1900727 0.009442364 0.0028037997 0.086488225
000150 1f 9a 07 3e 04 7e 21 3d df cf 49 be e0 17 55 be
       0.13242386 0.03942682 -0.19708203 -0.20809889
000160 e0 12 a7 be 4f 66 d1 be f5 65 66 bb 72 07 bf 3d
       -0.32631588 -0.40898368 -0.0035155986 0.09327592
000170 d6 ef 25 3e 6e 2a ba 3d 14 cd 24 bc ed 74 d2 bc
       0.16204771 0.09090124 -0.01005866 -0.02569052

net.9.bias f4 [3]
000000 f8 ef 95 3e 0a a4 d7 3d f7 01 0e be
       0.29284644 0.10529335 -0.13867937
