mlp_classifier.pt (torch, 17556 bytes, 8 tensors)

net.0.weight f4 [64, 13]
000000 72 f0 9a 3e 3c 1c 51 3e 3e e8 40 bc 11 e4 25 3e
       0.3026157 0.20420927 -0.011774121 0.16200282
000010 2c eb a2 bd 0f 56 80 bd 46 b5 52 be 54 cd 91 3e
       -0.07955012 -0.062664144 -0.20576963 0.28476965
000020 9d 6b e1 bd 90 3a a1 be 30 b8 90 be b6 db 6a 3d
       -0.11006854 -0.31489992 -0.28265524 0.05733844
000030 58 0c e7 3d 86 5b 73 3e db b2 06 be a8 ed 16 3e
       0.11281651 0.23765382 -0.13154165 0.14739096
000040 e0 0f a5 3d f9 c9 5e bd 4f 22 03 3d b0 06 59 be
       0.080596685 -0.054391835 0.03201514 -0.21193957
000050 59 0e 7a 3e ec 6d cf 3d 4c 13 08 be 54 af d4 bd
       0.24419536 0.10128388 -0.13288611 -0.10385004
000060 95 ed b4 3d d2 50 84 bd 95 a5 3b 3e 17 2a 7b 3d
       0.08834378 -0.06460728 0.18324883 0.061319437
000070 79 c4 85 3d 97 df 2c bc 56 f4 be 3c fd 3c 9d 3e
       0.06531615 -0.010551355 0.023309868 0.30710593
000080 52 11 32 be ae a5 3c 3e 28 a6 ab be eb e2 3d be
       -0.1738942 0.18422577 -0.33525205 -0.18543594
000090 22 e1 73 be 01 6f 0f 3d e5 e4 05 bc 5d ec 69 3e
       -0.2381635 0.03501797 -0.0081722485 0.22844072
0000a0 99 95 3d be c6 02 0d be 9a 74 a8 bd 9e f2 af bc
       -0.18514098 -0.13770589 -0.08225365 -0.021477994
0000b0 00 33 1d 3e a1 f7 54 3e c3 2c db bd 01 98 47 be
       0.15351486 0.20797588 -0.10701897 -0.19491579
0000c0 d6 7b be be 13 ef 7a be ef 40 07 be 69 71 ee ba
       -0.37203854 -0.24505262 -0.13208364 -0.0018191758
0000d0 ce 10 2d 39 0c 5e a3 bc 42 7b 8b be 8d d5 a8 bd
       0.00016504826 -0.019942306 -0.27242476 -0.082438566
0000e0 72 2d 52 3e b0 73 dd 3d a8 c6 3a 3e 20 9b 57 3e
       0.20525149 0.10813081 0.18239844 0.21055269
0000f0 2b 8e f7 bd a3 10 07 3d 41 e6 a6 bd 3d 1d 56 3c
       -0.12087663 0.03297485 -0.08149386 0.013068494
000100 d4 eb 32 bd 8d 53 5e 3d ee 20 34 bd 96 e9 05 3e
       -0.043681934 0.0542789 -0.043976717 0.13077387
000110 c5 c8 ee 3d 7b b3 a6 3c cd 11 21 bc f6 37 d0 be
       0.116593875 0.020349255 -0.009830904 -0.40667695
000120 ef 4a a7 3e f5 0c b1 3d 47 b8 35 3e a1 8e 4c bd
       0.32674357 0.086450495 0.17746077 -0.04994071
000130 a8 78 82 bf 8b a5 2d bc a8 b4 67 bc 75 60 33 3e
       -1.0193071 -0.010598551 -0.014142193 0.17517264
000140 96 85 0c 3e 23 96 86 be ee 98 a9 3d ca 4e 4d 3e
       0.13722834 -0.2628642 0.08281122 0.20049587
000150 21 2e 7d be d7 99 20 3e 5e 6d 9c 3c 9d c1 98 bb
       -0.24724628 0.15683685 0.01909512 -0.0046617524
000160 c3 d6 c8 be cb 1a 0d 3c 1c 4c 3e bd e6 e2 27 be
       -0.3922635 0.008612345 -0.046459302 -0.16395149
000170 27 a0 40 3e 0d 90 2c 3e a0 20 c8 bd b9 8f 13 be
       0.18811093 0.16851826 -0.09771848 -0.14410295
000180 3b de cf bd 86 1b 2c 3e 63 f9 fe be ec ca d6 3d
       -0.10149809 0.16807374 -0.49799642 0.10487923
000190 d3 a6 db 3e 10 02 8c 3d e3 73 42 3d c1 7e 3a 3d
       0.42900714 0.06836331 0.0474738 0.04553104
0001a0 f1 2c 23 3e 5a a3 43 3e ea 02 89 bc 29 d6 90 3e
       0.15935113 0.19105282 -0.016725022 0.2828839
0001b0 07 ef 3a be 2c c5 02 3d 62 6f 0b be 27 8b ad bd
       -0.18255244 0.03192632 -0.13616708 -0.08473807
0001c0 32 ee 12 3e 2d 30 e8 bd 7c 52 ec 3c d4 d3 79 bf
       0.14348677 -0.11337314 0.028847925 -0.9758885
0001d0 35 a9 dd bb 2b 04 34 3e 2e b3 2b 3c 2f d3 0e 3e
       -0.006764556 0.17579715 0.0104797315 0.13947748
0001e0 2c 0e e2 bd f5 da 5e 3e 6e f5 bd bb 3b 64 9b be
       -0.11037859 0.21763213 -0.0057970798 -0.30349907
0001f0 df b5 73 3d 8f db fe 3d 07 1a 5f be 92 b4 c6 3d
       0.059499618 0.12444221 -0.21787272 0.0970241
000200 bc 43 5e bf 60 bc cf 3b 21 96 00 3d d5 12 8a bd
       -0.86822104 0.0063395947 0.031393174 -0.06741873
000210 8f d3 e1 3d a5 4b 1a 3e 66 c3 be 3d 87 df ff bd
       0.1102668 0.15067919 0.09314613 -0.12493806
000220 f9 7a 6d 3e 90 eb 0e bf e6 5a 04 3e 9b 80 06 be
       0.23191442 -0.5582819 0.129253 -0.13134997
000230 ac 60 83 3c b3 9f 4b 3d 1b 84 10 bd 06 32 a7 3d
       0.016037308 0.049712848 -0.035282236 0.08163838
000240 30 a3 bd 3d 12 c1 58 be 0d db 3f 3e 1f 96 25 bc
       0.09259641 -0.211674 0.18735905 -0.010106592
000250 64 c7 72 be a9 26 af 3e 9c 4b b0 bd c0 0d 98 37
       -0.23708874 0.34209183 -0.08608171 1.8126215e-05
000260 c6 ed 9b bd 16 60 56 bd 66 b7 88 3c 04 09 8a 3d
       -0.07613711 -0.05233773 0.016689014 0.06740001
000270 fa 02 67 91 59 a4 2f 98 fb 00 a7 b2 c8 34 3c 13
       -1.8223604e-28 -2.2701194e-24 -1.9441805e-08 2.375496e-27
000280 86 ed 83 b3 07 61 fe 12 fb 49 02 99 9e f2 f3 b1
       -6.143368e-08 1.6053573e-27 -6.735783e-24 -7.099813e-09
000290 e0 1b de 99 5c 6e 84 91 46 52 09 af 9d 64 76 b5
       -2.296552e-23 -2.0893942e-28 -1.2489307e-10 -9.1788553e-07
0002a0 4f 8d 0a 95 c4 d1 7b be d8 0c 51 be 87 cd 80 be
       -2.798035e-26 -0.24591738 -0.20415056 -0.25156805
0002b0 7a 94 6a 3e cb a8 2e be 69 a4 28 3e e0 3b 40 3e
       0.22908202 -0.17056577 0.16468967 0.1877284
0002c0 b9 c9 72 3e 2a a3 0f 3e 5e dc 5f bd 3e ca 8b 3e
       0.23709764 0.14027086 -0.054653518 0.27302736
0002d0 05 c7 a7 3d 61 9c fd bd 65 e9 ce 3d 05 cb 5a bd
       0.08192257 -0.123833425 0.1010311 -0.05341627
0002e0 3b 61 0e 3e d4 5a 0d be e9 f9 0b 3e 79 7e 7b 3e
       0.13904278 -0.1380418 0.13669552 0.24559964
0002f0 a9 38 94 be af 14 50 3d 62 35 02 3e 31 81 3e be
       -0.28949478 0.050800975 0.12715676 -0.1860397
000300 87 59 f7 bd 98 de 89 bf ed 2f a5 bb c0 00 20 3e
       -0.12077623 -1.0771055 -0.0050411136 0.15625286
000310 bd 42 72 3e 39 b1 ca bc 56 b0 05 be 67 94 9c 3d
       0.23658271 -0.02474271 -0.13055548 0.07645493
000320 0f f2 8b 3e d3 09 60 be 64 6a fe bc 85 1a 3a be
       0.27333114 -0.21878748 -0.03105659 -0.18174179
000330 46 61 d1 bd d4 d7 0d bf d1 84 d1 3c 8f 2e 2a bc
       -0.102236316 -0.5540745 0.025576027 -0.010387077
000340 a5 84 0f be 83 5f fb bd fe e5 7e 3e 7c ff 1b bd
       -0.14015444 -0.12274077 0.24892423 -0.038085446
000350 ee 9c 34 be 2b 53 95 be 9a 8a b8 3e f2 4b e8 be
       -0.17637989 -0.29165015 0.36043245 -0.45370442
000360 f1 a1 1c 3e bc 2c 10 3e 01 7b 35 3e 19 05 6a 3e
       0.1529615 0.14079565 0.17722704 0.22853507
000370 ca 16 ce bc 32 8f 35 3d b1 15 7c bd 1a d1 7a 3e
       -0.025157351 0.044326015 -0.061544124 0.24493828
000380 31 c9 17 3e 20 11 3f be 97 9e 1a be c8 27 52 bc
       0.14822842 -0.18658876 -0.1509956 -0.012826867
000390 55 fa 07 3e eb c9 12 be cf 65 97 bd e1 73 9c be
       0.13279088 -0.14334838 -0.07392465 -0.3055716
0003a0 2f a4 44 bd ad 23 0c be 3d 69 b0 bd ee e3 22 be
       -0.04800814 -0.13685484 -0.086138226 -0.15907261
0003b0 3e ee 30 be 5e e1 07 be af 10 b5 3d 00 85 6c 3e
       -0.17278382 -0.13269565 0.08841073 0.2309761
0003c0 5c fa 0e 3d dc 46 9a 3e 6d 66 54 bd f3 53 18 bd
       0.03490673 0.30132186 -0.051855493 -0.037189435
0003d0 ee 0e 95 bc 91 46 75 3e 53 3b 03 3d 8e c5 2a bd
       -0.018195596 0.239527 0.032038998 -0.04169231
0003e0 37 14 2c 3e a9 01 8f 3c e9 7c 87 3e 42 57 a8 be
       0.16804586 0.017456846 0.26462486 -0.32879072
0003f0 23 f4 f5 3d cb 94 af 3e 04 03 08 bf 52 47 2c 3d
       0.12009456 0.34293208 -0.531296 0.042060204

net.0.bias f4 [64]
000000 8f 7a d9 bc b9 2d 77 bd a5 59 81 be fd 21 82 3c
       -0.026547698 -0.06034634 -0.25263706 0.015885348
000010 2f 26 ec be bb 05 c1 3d 7e 48 08 be 10 56 5c 3e
       -0.46122882 0.09424921 -0.13308904 0.21517205
000020 68 28 be 3e 6c 24 4a be 67 4e 85 bd dc 35 2e 3e
       0.37140203 -0.19740456 -0.06509095 0.17012733
000030 33 dc 83 2a cb 69 0b 3e 8b af 0c be 09 5b 1b 3d
       2.3423068e-13 0.13614576 -0.1373884 0.037928615
000040 1f fa 87 3d a7 37 32 bd 3b 12 9f be cc eb 7d 3e
       0.06639504 -0.043510105 -0.31068596 0.2479698
000050 e7 a2 20 be 0b b1 85 3d 8c 34 3e be 20 92 8c be
       -0.15687142 0.06527909 -0.18574733 -0.27455235
000060 a6 b5 6c 3d e3 b1 2a 3e 42 82 68 bd ea 85 ac be
       0.05779042 0.16669421 -0.05676485 -0.33695918
000070 cf 57 77 3e 0a 34 8c 3d 27 83 9f bd 05 97 a1 3e
       0.2415459 0.06845863 -0.07788687 0.3156053
000080 ac 20 4d 3e f7 2f cf 3d 80 37 16 be 22 85 79 3e
       0.20031995 0.101165704 -0.14669609 0.24367192
000090 c9 7c bd 3a b5 1b 1c bd f3 65 ac be 6c 48 fc 3d
       0.0014456745 -0.03811236 -0.3367153 0.12318501
0000a0 bc 1a 80 be 64 0d 0e 3e 18 80 1a 3e 86 f3 7d bd
       -0.25020397 0.13872296 0.15087926 -0.06199982
0000b0 f4 5f 5c 3d c5 fe ed bd 18 bc 98 be f1 3c c8 be
       0.053802446 -0.11620859 -0.29831004 -0.39108995
0000c0 15 b7 f5 3d de 97 e4 bd 1f 99 1d bd 55 c9 6b 3e
       0.11997811 -0.11161779 -0.038476106 0.23026021
0000d0 76 23 4e be cc 90 cc 3d 63 eb 8d be ea b0 98 3c
       -0.20130715 0.09988555 -0.27718648 0.018639047
0000e0 8e 88 a6 be 36 c3 84 3e 7e e7 83 3e 11 d4 90 bd
       -0.32526058 0.25930184 0.25762552 -0.070716985
0000f0 22 d5 8d be 4e 63 9e 3d 89 d0 46 3b 59 3f d0 bd
       -0.2770167 0.077337846 0.00303367 -0.101683326

net.3.weight f4 [32, 64]
000000 dc 0f 42 be a8 32 c1 3b a8 a3 4c be 7b f2 9f bd
       -0.18951362 0.0058959313 -0.19984305 -0.07809921
000010 ea 71 94 bc 05 d9 e3 be ee 12 74 3d 22 e2 fc 3d
       -0.018120725 -0.4450151 0.059588365 0.12347819
000020 68 77 f4 bd db 43 62 be cf 24 af 3d c7 11 4c 3e
       -0.119368374 -0.22096197 0.085519426 0.19928657
000030 0c 3a c0 93 1c da 95 3d 1d 65 8c be 51 7e 4a bd
       -4.8524853e-27 0.07316992 -0.27420893 -0.04943687
000040 36 41 0a 3e de ae c7 bd bd c0 a0 bd 59 b4 8e 3e
       0.13501438 -0.0975015 -0.07849262 0.2787197
000050 24 20 a1 bd ab 06 8c 3c b0 50 88 be fd 6f 22 3b
       -0.078674585 0.017093023 -0.2662406 0.0024785988
000060 f1 5c e7 3d dc 72 a9 bd 18 b9 85 bc c7 90 41 bd
       0.11297024 -0.08273861 -0.016323611 -0.04725721
000070 8b 4b 03 3e 42 95 94 3c 00 cd 8a bd d1 94 56 3c
       0.12821786 0.018137578 -0.06777382 0.013097004
000080 06 02 8b be be c9 85 3d 8f a8 63 3b 62 05 b0 bc
       -0.2714998 0.0653262 0.003473792 -0.021486942
000090 bd f4 84 bd d2 d8 b5 bc 43 47 b3 be 41 b1 b9 3d
       -0.064919926 -0.022198115 -0.35015306 0.090670116
0000a0 be 8e d9 3d 1e 09 9f 3d 72 cb 32 3e e8 2b ee 3d
       0.10622929 0.07765411 0.1746042 0.11629468
0000b0 b5 37 ff 3d b2 18 8d 3b 8a 1f 8f 3d dd 7c 53 be
       0.12461797 0.0043059224 0.069884375 -0.206531
0000c0 d0 99 da bd 52 45 72 3d 15 47 f5 3d a4 91 18 3e
       -0.10673869 0.05914814 0.119764484 0.14899307
0000d0 97 a9 27 3d d0 7b 12 3e b5 a6 41 be 28 14 a9 bd
       0.040933218 0.14305043 -0.1891125 -0.082557976
0000e0 67 3b 92 be 0e a5 11 3e 9e 01 88 bc 54 a3 37 3e
       -0.28560945 0.1422312 -0.016602334 0.17933398
0000f0 4a 64 2a be 25 d9 72 be d4 e3 f2 3d f4 28 ff 3d
       -0.1663982 -0.23715647 0.11859861 0.12458983
000100 51 02 61 3d 8c a8 24 3e e4 64 f9 bc a6 28 85 3d
       0.05493385 0.1607992 -0.030443616 0.06501894
000110 e3 eb 2a bd 0b c8 d4 ba d9 ae 8b 3d 23 f6 4e be
       -0.041728865 -0.0016233934 0.06820459 -0.20211081
000120 d1 ef ae bc f1 f7 4b 3d 0f a2 51 be b8 40 18 be
       -0.021354588 0.049797002 -0.20471977 -0.14868438
000130 ae c9 6e 98 e7 68 c4 3c 22 a6 1d 3e d9 1f e2 3d
       -3.0862601e-24 0.023975803 0.15395406 0.11041231
000140 ff 3e 43 bd fc 28 13 3e c7 69 ae bd e7 3e 37 be
       -0.0476675 0.14371103 -0.08516269 -0.17895089
000150 4b a2 2a 3c b1 f2 ad bd 74 f6 91 bc da f5 9b bd
       0.01041467 -0.08493555 -0.017817713 -0.07615252
000160 0c 82 c1 bc 01 0f 51 3d 26 37 4d bd 4c df b6 bb
       -0.023621581 0.0510397 -0.05010142 -0.0055808183
000170 17 7a 82 be 21 51 d7 3d 35 9e 47 3d be 7e 13 3d
       -0.25483772 0.10513521 0.048734862 0.036009543
000180 03 31 71 3e 46 01 f5 bd 71 87 c4 bc b2 58 b2 3d
       0.23553853 -0.119631335 -0.023990365 0.087083235
000190 79 70 ca 3d cd 47 df bd d2 97 c4 3d 9c 28 fd bd
       0.09884734 -0.10902367 0.0959927 -0.12361261
0001a0 ad 49 a0 bd b7 20 97 bb d4 58 be bd 60 78 4f bb
       -0.078265525 -0.004612054 -0.09294286 -0.0031657442
0001b0 1e 04 3e bd 1d 10 35 3d 5f c3 66 3d d3 05 42 bd
       -0.046390645 0.04420482 0.056338664 -0.047368836
0001c0 59 85 e5 3b 7a 4c b9 bc c4 d6 39 3c ab 9f 06 be
       0.0070044217 -0.022619475 0.011342708 -0.13146846
0001d0 03 e3 9a 3c 84 81 b5 bd f8 83 0a 3e 91 53 5e 3d
       0.018907076 -0.08862594 0.13526905 0.054278914
0001e0 6e ea 10 3e dc 50 d6 3c d8 8d 07 be 72 cd 36 be
       0.14151928 0.026161604 -0.13237703 -0.17851809
0001f0 88 91 17 bd 26 56 83 3d 0e ec e6 3b f8 81 ea 3c
       -0.037004024 0.06412916 0.007047183 0.028626427
000200 a1 74 93 bd 39 53 22 bd ac 1c 0e bd 49 8d 2a 3e
       -0.071999796 -0.03963015 -0.034695312 0.16655459
000210 50 d9 52 bd f9 2f be bc 16 cb d3 3d 8d f8 05 be
       -0.051476777 -0.023216235 0.1034147 -0.13083096
000220 b0 14 7f be 7b bd de bb dd f7 d6 3b e2 d0 b2 3d
       -0.24910235 -0.00679749 0.0065603093 0.087312475
000230 88 77 56 0f cd d4 41 3c b0 bb 94 3d 12 54 19 3e
       1.05740355e-29 0.011830521 0.07262361 0.14973477
000240 4f a0 d1 bb 0d e1 b8 3c 03 6e 09 3e ee 0a 89 be
       -0.006397284 0.02256825 0.13420872 -0.2676615
000250 6e 78 7a 3d d0 00 0b 3e 71 84 1b 3d 1d 97 0c 3e
       0.061150007 0.13574529 0.037968103 0.1372952
000260 f2 20 3b be 43 29 d4 bd e5 af c2 bd 71 90 3a 3d
       -0.18274286 -0.103594325 -0.095062055 0.045547906
000270 ae 7c 06 be 84 54 ce 3d 45 b9 2c bc a3 ea 7d be
       -0.13133499 0.10074714 -0.010542219 -0.24796538
000280 4d 1f b8 3c 27 a6 6f bd f8 1d 5c 3d 5f 51 3e bd
       0.022475863 -0.058508065 0.053739518 -0.04646432
000290 b3 a5 b7 bd 6a f2 35 bd 0b e0 34 3e 8d 33 fb ba
       -0.089671515 -0.044420637 0.1766359 -0.0019165144
0002a0 27 3c c3 3d b8 50 d1 bd 50 66 ff bd 8c 9d bf bd
       0.095329575 -0.10220474 -0.124706864 -0.093562216
0002b0 2b dd 78 bc 51 61 7f 3b 33 c8 ea 3d d0 82 0f bd
       -0.015189449 0.0038967917 0.11463966 -0.035036862
0002c0 11 e2 b5 3d 75 fc c6 bd 4a 23 85 bd bb d8 35 be
       0.08881009 -0.09716121 -0.065008715 -0.17758457
0002d0 34 52 be bd d6 b1 71 3d 78 36 04 3e 5f 5f 44 3e
       -0.09293023 0.05900749 0.12911403 0.19177006
0002e0 71 53 86 bd 4f 14 96 bd 9c b6 91 3d 7c bd 15 bd
       -0.06558884 -0.07328092 0.07114908 -0.03655766
0002f0 25 a1 0b 3e a1 92 cd bc 41 c9 f4 3d a6 7a d0 bd
       0.1363569 -0.025094332 0.11952449 -0.10179643
000300 54 71 3d 3c 4d fe 90 3d 05 9a a9 3d 42 b8 30 3a
       0.011562664 0.07079754 0.0828133 0.0006741324
000310 06 65 33 3d 78 b0 60 3d 02 d3 e6 3d b6 48 a2 be
       0.043797515 0.054855794 0.11270715 -0.316961
000320 07 d1 8f be a8 b6 95 3d d8 e5 cc bd ca b6 8b bd
       -0.28089163 0.073102295 -0.10004777 -0.068219736
000330 e8 c1 5d 13 3c 02 9e bd 67 62 95 bb 25 b9 4c bb
       2.7989725e-27 -0.0771527 -0.0045588496 -0.0031238284
000340 f6 8e 8f 3d 5a 12 23 bc c2 2f ee 3b 1f ec 86 be
       0.070096895 -0.009953106 0.007268877 -0.2635202
000350 0b e7 8a 3e 00 3c 1d bc 95 9b 00 bd 11 e2 cd 3d
       0.27129397 -0.009596825 -0.031398375 0.10052884
000360 be 97 25 be 56 8b a7 3c 0a 3f a1 3c 93 77 ba 3d
       -0.16171166 0.020452183 0.01968338 0.09104838
000370 e6 b0 1f be 6f cf 01 bd 30 37 a9 bd 3e cf a6 be
       -0.15594825 -0.031691965 -0.08262479 -0.32579988
000380 8c e9 8c bd 94 cc 31 3d d8 ee 0b bd e4 db 84 be
       -0.06880483 0.04340799 -0.034163326 -0.25949013
000390 a6 d2 53 3d c7 6d ee 3d 1a 90 45 3e 47 f9 30 be
       0.051714562 0.11642032 0.19293252 -0.17282592
0003a0 6b 83 ed 3d 90 eb 3e be 29 72 00 be 75 83 36 3d
       0.115973316 -0.18644547 -0.12543549 0.04455896
0003b0 74 24 d1 bd ab 73 df bd 4d 57 e7 3d 82 36 0a 3e
       -0.10212031 -0.10910734 0.11295948 0.13497356
0003c0 7a f3 4e bd 0b 21 d5 bc 9d 23 b0 bd 08 26 5c be
       -0.050525166 -0.026016733 -0.08600543 -0.21498883
0003d0 6d ab 1d be 71 20 d2 bd b2 95 ab 3d 5c 47 43 3e
       -0.15397425 -0.10260094 0.083781615 0.1907019
0003e0 e5 5d 23 3d 5d 4f dd bc 48 b1 25 3c 7c b3 54 be
       0.039884467 -0.027015382 0.010113068 -0.20771593
0003f0 51 4d ad 3c 60 b8 7f 3c 12 02 50 bd 4b cc 8e bd
       0.021155031 0.015607923 -0.050783224 -0.069725595

net.3.bias f4 [32]
000000 8e 64 29 3e c8 32 2f 3d 33 27 13 3d a4 3d 1a 3d
       0.16542265 0.04277304 0.035926055 0.03765644
000010 65 5d 96 3d 5a d4 84 bd a1 65 c2 3d 3f 0b 66 3d
       0.07342032 -0.06485815 0.094920404 0.05616307
000020 ad ad 9e 3d d4 65 d6 bd 0c 66 29 3e ed 95 00 3e
       0.0774797 -0.10468641 0.16542834 0.12557192
000030 5d b2 d1 3c 1c 86 0a 3d ea 7c 42 bc 46 c7 5f 3e
       0.025597746 0.033819303 -0.011870602 0.2185336
000040 77 ea b9 bd 5e 65 f4 3d 28 1c 24 3e 24 91 06 bd
       -0.09077924 0.11933397 0.16026366 -0.03285326
000050 df 20 1b 3e 21 81 66 3d 9e e4 3a 3e 59 d3 89 bc
       0.15149258 0.05627549 0.18251273 -0.016824411
000060 14 10 d6 3c 1d ee 61 3c 0d 04 19 3e f7 d4 1c be
       0.026130714 0.013789681 0.14942952 -0.15315615
000070 66 e6 49 3e 98 cf 54 bd 47 06 b1 3d 64 3d de bc
       0.19716796 -0.05195579 0.086437754 -0.027128883

net.6.weight f4 [16, 32]
000000 d0 8a a3 3e 71 18 13 be bb 6c 8e be 4c 32 6c be
       0.31941843 -0.14364792 -0.2781733 -0.23066062
000010 54 5c a1 3d 97 d9 dc bd 5a 6c 02 bd 81 82 bb 3e
       0.07878938 -0.107836895 -0.031841613 0.36623004
000020 22 77 4a be dc 79 39 be 85 b4 e9 3d 5c 62 47 3d
       -0.19772008 -0.18112892 0.114113845 0.048677787
000030 3f ac ca bd 48 ca 09 be 06 a0 57 bd ae 4c d6 3d
       -0.098961346 -0.1345607 -0.052642845 0.10463844
000040 25 d2 01 3d 05 e9 08 3e 8a 05 16 3e 0a 13 57 be
       0.03169455 0.1337014 0.1465055 -0.21003357
000050 5c 4e bb 3d 82 bc 07 be 96 3d a0 3e 80 eb 55 3d
       0.09145805 -0.13255504 0.31296986 0.052226543
000060 68 7b 98 be f9 f1 1e bb 3f 96 ed 3c ef 47 64 be
       -0.29781651 -0.0024253114 0.029002307 -0.22293065
000070 00 d9 9f 3d 4e bc 2d be e2 25 d3 bc 8a 4e c8 3d
       0.07805061 -0.16966364 -0.0257749 0.09780605
000080 5f 52 93 bd 2d 38 96 3e 2f 52 1a 3d 52 78 83 3e
       -0.071934454 0.29339734 0.037676033 0.25677735
000090 4d dc e6 3d 18 20 da 3e 3b fd ce bd 97 e8 df bc
       0.11272488 0.4260261 -0.10106894 -0.027332587
0000a0 f1 4a 01 3e db a9 5a 3e 79 57 04 be ad ea f5 bd
       0.12626244 0.21353857 -0.12923993 -0.120076515
0000b0 dd 0a 89 3e 82 dd b3 3c 3b 88 af 3d 89 ac 52 3e
       0.267661 0.02195621 0.08570906 0.2057363
0000c0 9d 69 98 3c 3b 97 c3 3d 21 14 3c 3e 07 38 2f 3e
       0.018605048 0.09550329 0.18367054 0.17111216
0000d0 92 d8 c5 bd 60 8f c9 bc 66 7a d5 3c 2e 34 6e 3d
       -0.09660448 -0.0246045 0.02605934 0.05815523
0000e0 e4 dc cf ba a7 64 0e 3e 4f 5f 1c be 14 7c e5 3d
       -0.0015858677 0.13905583 -0.15270732 0.11205307
0000f0 58 89 11 bd ac e5 72 3e fa 74 b7 3d dc a9 4a 3e
       -0.03553137 0.23720425 0.089578584 0.19791359
000100 56 dd fc bc 3f 99 71 bb 12 3c 55 3e 39 ad d0 3d
       -0.03086726 -0.0036865023 0.20823696 0.101892896
000110 86 ed 45 be 01 f4 82 3d 09 42 bd 3d e9 c4 26 be
       -0.19328889 0.06394196 0.09241111 -0.16286053
000120 db 04 16 3e 3a 6b 11 3e e0 74 42 be 39 f4 f4 3c
       0.1465029 0.1420106 -0.18989897 0.02990161
000130 ee e9 7f bb d4 27 2f 3e 41 7f 5e 3d 92 71 0b be
       -0.0039049345 0.17105037 0.054320578 -0.13617542
000140 95 a5 3b 3e 9f f1 11 3e 1a d6 71 bd f0 18 ad 3c
       0.18324883 0.14252327 -0.059042074 0.021130055
000150 1e ce d0 bd af fa 34 bc f9 a1 27 be 8e 09 35 3e
       -0.10195564 -0.011046096 -0.16370381 0.17679426
000160 2a f6 56 3e 27 b1 c7 3d 93 03 c5 bc c0 fd 2d 3e
       0.20992342 0.09750586 -0.024049556 0.16991329
000170 24 65 69 bd b4 57 81 bc b2 ab 06 be b3 2a 20 3e
       -0.05698122 -0.01578889 -0.13151434 0.15641288
000180 ea 95 10 bd 40 73 b7 3c d5 a2 0b bd b6 97 e1 3b
       -0.03529922 0.022393823 -0.034090836 0.0068845404
000190 0a 94 0e 3e 7e 3b 3c 3c 39 c6 19 be 16 52 d4 3c
       0.1392366 0.011488793 -0.15017022 0.025918048
0001a0 e0 eb 58 be d1 db 95 bc 2e f3 ae bb ff 83 8a 3d
       -0.21183729 -0.018293293 -0.005339048 0.067634575
0001b0 0a 2d 26 3e 46 1f 56 3c 1a 77 39 bd 1c 06 84 3e
       0.16228119 0.01306898 -0.0452796 0.2578591
0001c0 22 9e 1d be 22 15 4f 3e c5 28 18 3e 03 a9 09 3e
       -0.15392354 0.20222905 0.14859302 0.13443379
0001d0 f1 3d f0 bc 4e 8c c1 3c a7 e0 e4 3d e6 2d ab 3d
       -0.029326411 0.023626473 0.111756615 0.08358364
0001e0 79 7f 0e bd e0 e5 d4 3d 5a eb 0f be 39 11 a2 bd
       -0.034789536 0.10395408 -0.14054623 -0.07913441
0001f0 85 77 46 3d 9d b8 3b bd 3c 37 cb 3c e4 ca 38 3e
       0.048453826 -0.045830358 0.024806611 0.18046147
000200 b7 e5 6c bc 1a 72 d6 bd 0c 5c 9a bd 27 50 72 3e
       -0.014459065 -0.10470982 -0.07537088 0.23663388
000210 21 ed b6 3b 83 08 09 3e 8d d6 7b 3d 1b 92 0b be
       0.005582467 0.13382153 0.06148391 -0.13629954
000220 fb c8 dc 3d e9 37 51 ba 45 9c bb bd bd 8b 83 bd
       0.107805215 -0.00079810485 -0.091606654 -0.06423137
000230 5b 52 51 3d 7c fe 59 3e b5 fc c3 bc 0b 97 9f bd
       0.05110393 0.21288484 -0.023924211 -0.07792481
000240 81 0e 38 3e aa 32 2d 3d ea 75 fa bd b2 a6 2e 3e
       0.17974283 0.042284645 -0.122295216 0.17055777
000250 cb cd 9c 3c a1 5b 07 3e 06 8b 42 bd 31 54 78 3d
       0.019141098 0.13218547 -0.047495864 0.060627166
000260 d3 ec 59 3e b4 64 09 3d e2 48 b3 bd 2a 74 1a 3e
       0.21281748 0.033543304 -0.08754136 0.15083376
000270 ec f5 33 be d6 c9 0e bc e0 c8 ad bd 76 5a 84 3d
       -0.1757428 -0.008715114 -0.084855795 0.064625666
000280 24 f8 98 bd 5a 12 66 3e 76 5b ab bd 17 fa 8d 3e
       -0.07469204 0.22467938 -0.08367054 0.27729866
000290 fa 4e b5 3d 0a bf b4 3e 73 ed 26 bd 3b 38 b6 bd
       0.08852954 0.35302 -0.040753793 -0.08897444
0002a0 6f a0 5a 3e b1 6d 17 3e 7d 0b 09 be c8 f9 ef 3d
       0.21350263 0.14787938 -0.13383289 0.11717564
0002b0 51 75 6a 3e 32 0c 37 3e 05 3a 98 bd ba ae 2c 3d
       0.22896315 0.17875746 -0.07432941 0.04215882
0002c0 57 a9 0f 3e c5 26 84 3e 6c c1 12 3d c6 0b 80 3e
       0.14029442 0.2581083 0.035828993 0.25008982
0002d0 70 f4 bd bd a8 40 71 bc 80 38 b0 bc 5c 2a 0d 3e
       -0.092751384 -0.014724888 -0.021511316 0.1378569
0002e0 3e 01 8c 3c 5c 9f 9f 3e e8 22 d9 bd 14 c0 d1 3d
       0.017090436 0.3117627 -0.10602361 0.10241714
0002f0 74 eb c5 bd c4 dc d3 3d 49 b4 48 3d 98 b1 4a 3e
       -0.0966405 0.10344842 0.04900006 0.19794309
000300 c7 6f 58 3e 5b 77 0a 3e b0 00 ef bd cf 8c 54 3a
       0.2113639 0.13522093 -0.11670053 0.00081081403
000310 e1 4a 0d 3e 7d 51 92 3d 77 16 8b bd 1b b4 8f 3e
       0.13798095 0.07144449 -0.06791394 0.28067097
000320 38 00 66 be 36 e7 d2 bc 04 e0 70 3c af a4 3f 3e
       -0.22461021 -0.025745016 0.014701847 0.18715166
000330 5d 3e f8 bd f5 0c 35 bc be 7f dc bd c3 d8 ff 3d
       -0.1212127 -0.0110504525 -0.107665524 0.12492516
000340 a6 2f 56 3d f8 fd 15 3e a3 77 9a bd ca bc 08 be
       0.052291535 0.14647663 -0.0754235 -0.13353267
000350 62 1b dc 3d 3c d4 af bd 84 96 d5 3c 42 fa 2b bd
       0.1074741 -0.08585402 0.026072748 -0.04198671
000360 d0 0e a0 3b 7b 5c 5a bd 7d fa ee bd 76 4f 33 be
       0.0048845783 -0.053310852 -0.116688706 -0.1751078
000370 ab a3 5c 3e 46 15 19 be ab b2 e6 3d 58 e2 fe ba
       0.2154681 -0.14949521 0.11264547 -0.0019446118
000380 ef 6b e9 bc 5c 0a 6f 3c b2 33 ed 3d b3 ac 31 bc
       -0.02849385 0.014589872 0.11582126 -0.010844397
000390 ae dd 0d 3d 22 df 35 3e 26 90 f4 38 7a 19 3c 3c
       0.03463524 0.177609 0.000116616764 0.011480683
0003a0 fb 16 64 3d 6c 2a 7a 3d cf 4b bf b9 bc 36 d1 3d
       0.05568598 0.061075613 -0.0003648684 0.10215518
0003b0 63 11 b2 3d f4 48 71 bd d7 33 dc 3d 68 ff dc 3d
       0.086947225 -0.058907464 0.10752075 0.107909024
0003c0 18 45 76 3d 22 d9 7a 3e e7 4f 3f 3e 68 2d 29 3e
       0.060124487 0.24496892 0.18682824 0.16521227
0003d0 80 02 c0 bd cd 6f 82 bd 3f af 97 bc b8 fe bc 3d
       -0.09375477 -0.063689806 -0.018516181 0.09228271
0003e0 51 71 97 3e 0a de 72 3e 19 6f e9 3c 2e 5f c9 3d
       0.2957864 0.23717514 0.028495358 0.09832607
0003f0 06 76 4b 3c 33 6d 33 3e 31 42 fb 3d 67 3f 54 3e
       0.012418276 0.17522125 0.122684844 0.20727311

net.6.bias f4 [16]
000000 ee e8 e8 3e 4d a6 4f 3d 0a 2e 58 be 0c c4 47 3d
       0.4549021 0.050695706 -0.21111313 0.04877095
000010 99 7b b7 bc 69 ec 9e 3d 77 6a 42 3e 7b 0a 5d bd
       -0.022397803 0.077599354 0.18985926 -0.053965073
000020 4d d1 2f 3e 4a bd f9 3c b0 8f 0f 3f cc 92 52 3e
       0.17169686 0.030485768 0.56078625 0.20563811
000030 5b a9 dd 3e be 2f 65 bd 17 66 95 3c 5c 6a 7e 3d
       0.4329327 -0.055953734 0.018237157 0.06211315

net.9.weight f4 [3, 16]
000000 e7 bf 1c 3e 0e f5 3d 3e 18 39 45 be 16 b8 7b 3e
       0.1530758 0.18550512 -0.19260061 0.24581942
000010 53 79 b4 be 7d 40 da 3d 86 32 59 3e 2a 00 31 3e
       -0.35248813 0.106568314 0.2121068 0.17285219
000020 c7 03 84 3e be 6d 1c bf 56 aa d4 3d 12 6a 88 be
       0.25784132 -0.61104953 0.103840515 -0.26643425
000030 9a d8 af 3d 7a 6a 1c 3e 78 70 00 bf fc 38 88 be
       0.08586235 0.15274993 -0.50171614 -0.26605976
000040 c2 cd 3b 3e 76 7f e2 be ea 7b 1d be b1 38 db bd
       0.18340209 -0.4423787 -0.153793 -0.107041724
000050 db 01 76 be 6e fc 0d bf f7 9b 30 3e fc 00 a6 be
       -0.24024145 -0.554633 0.17246996 -0.32422626
000060 c3 4c 7d be 46 ef 6f 3e 00 39 1e 3e f8 1a 5e 3e
       -0.24736314 0.2343112 0.15451431 0.21689975
000070 1c 9f cb 3d 68 43 ca be 33 7e 7b 3e 05 9a 63 3e
       0.09942457 -0.39504552 0.2455986 0.22226723
000080 f3 ce d3 be 22 22 77 3e 7b ce 89 3e 1b 52 bb 3d
       -0.41368827 0.24134114 0.26915345 0.0914652
000090 9d 95 53 3e 00 14 22 3e 22 8d 96 be 4a f8 84 3e
       0.20662542 0.15827942 -0.2940455 0.2597068
0000a0 c7 6f fe 3d 61 f7 63 3e 50 4a 0f bf 2f 32 2c be
       0.124236636 0.22262336 -0.55972767 -0.16816019
0000b0 27 fa e5 be 60 ab 54 3e 31 c2 84 3e e7 33 2f 3e
       -0.44917414 0.207685 0.25929406 0.17109643

net.9.bias f4 [3]
000000 09 8f c3 3e f1 6b c1 3e 46 05 df be
       0.38195065 0.37777665 -0.4355871
