mlp_classifier.pt (torch, 13262 bytes, 6 tensors)

net.0.weight f4 [64, 6]
000000 46 7b d3 bd 63 18 c1 3d 1d 9f 01 3e 2c b7 cd 3c
       -0.10326247 0.094284795 0.12658353 0.025111757
000010 13 17 fb 3e c9 1e c4 bc 23 73 99 3e 77 10 aa bd
       0.49041042 -0.02394046 0.29970655 -0.08303922
000020 f8 2e 62 be be 84 54 bd 12 ae 78 bd 35 eb f7 3e
       -0.2208823 -0.051884405 -0.06071288 0.48421636
000030 ee 1c d3 3d 32 fc b0 3d c1 75 0f bf ed f9 b6 3e
       0.10308252 0.086418524 -0.56039053 0.35737553
000040 8b ef 9c 3c 8c c8 b3 bd 2a fe fb 3e 89 7d 2d 3e
       0.019157192 -0.08778486 0.4921735 0.16942419
000050 f5 3b 02 be f1 38 e1 3d 69 35 e0 be fb bd ed 3e
       -0.12718184 0.10997189 -0.4379075 0.46434006
000060 76 72 ae be d9 8b e8 3e a6 fb e2 bb a4 54 d2 be
       -0.34071702 0.45419195 -0.0069269715 -0.410802
000070 6c dd ac 3e a9 3b 64 be aa b6 e1 bc 3d e7 16 3e
       0.3376268 -0.22288384 -0.027552921 0.14736648
000080 5d 7b ae be 70 64 8e 3e bb eb fd 3e 12 c3 d8 3d
       -0.34078494 0.27811003 0.4959391 0.10584082
000090 f2 b4 ad 3e 3e a9 c0 bd a6 83 0c 3e 5e f4 03 be
       0.33927113 -0.094072804 0.13722095 -0.12886187
0000a0 3a 84 df 3e 5f d7 76 3e 9d 3f 37 3e d6 ac 2d 3e
       0.43655568 0.24105595 0.1789536 0.16960463
0000b0 42 11 b3 bd f3 98 35 bc 84 c4 02 bd 7c aa f7 bd
       -0.08743526 -0.011083829 -0.031925693 -0.12093064
0000c0 2a 38 8f 3e ed b6 8e bd 18 20 70 be 39 e4 34 3e
       0.27972537 -0.06968484 -0.23449743 0.17665185
0000d0 9f 73 01 3f d2 97 22 bd 14 cf 3b 3e ef 16 83 bd
       0.5056705 -0.03969557 0.18340713 -0.064008586
0000e0 62 6a 9b bd 44 18 10 3d 2a d3 34 bf 43 5b 10 3f
       -0.0758865 0.03517939 -0.7063471 0.56389254
0000f0 ec 8f 80 3e 66 29 86 3e 4b da 94 3d c0 a3 bc be
       0.25109804 0.2620346 0.072681986 -0.3684368
000100 00 e4 65 3e e2 fd 99 be 98 28 ce be 24 3c 27 3e
       0.22450256 -0.3007651 -0.40265346 0.16331536
000110 df 24 d9 3d 90 ef b4 3e 26 f5 9a be 24 ac 95 be
       0.10602736 0.35339022 -0.30265158 -0.29232895
000120 a7 8a 18 3e 00 5c a6 be dc 82 c1 3e 0f 02 c7 3e
       0.14896642 -0.32492065 0.3779515 0.38868758
000130 a3 f7 2c be 8f 18 89 be 2a e2 8e be 01 e3 21 be
       -0.16891341 -0.2677655 -0.27906924 -0.15809251
000140 8c a9 83 3e 80 7b 60 bd 80 b1 aa 3d cb 8a 68 3c
       0.25715292 -0.05480528 0.08334637 0.014193247
000150 37 d0 2a be 66 08 7e 3c 15 d3 88 3e ed 5e 3f 3e
       -0.1668099 0.015504932 0.26723543 0.18688555
000160 fb 38 fc 3d 8c 2d 19 3e c5 29 8d 3e 77 e4 2d be
       0.12315556 0.14958781 0.2757093 -0.16981684
000170 fe db 84 3e b9 fc c3 3e af 39 f4 3d e8 b4 5b 3e
       0.2594909 0.3827875 0.11925065 0.21455729
000180 c0 3b 8e 3e 90 ce c1 3c a7 c7 a7 3e 61 e0 51 be
       0.2777996 0.023658067 0.3276951 -0.2049575
000190 36 23 d9 3e 50 40 2e 3e 9b 45 b5 3e 63 7f 9e 3e
       0.42409676 0.17016721 0.35404667 0.30956563
0001a0 ae e1 2b 3e 8b 3e bf 3e 5a 99 ec be c5 0d e9 3d
       0.16785309 0.37352404 -0.46210748 0.113795795
0001b0 6c b7 c0 3c 02 d1 b4 3d 6c 0e 0e be 9b 76 cd 3e
       0.023524962 0.088289276 -0.13872689 0.4012955
0001c0 8e 69 9f be 39 76 9f be 99 8e ef 3e be c6 1a be
       -0.3113522 -0.31144884 0.4678848 -0.15114877
0001d0 46 31 8a 3d 68 3b 06 bd bd 64 df bd d6 10 61 be
       0.067476794 -0.032771498 -0.10907886 -0.21979079
0001e0 aa 09 ef 3e 7e 9c 35 bd ea 67 de be 1f a0 59 be
       0.4668706 -0.044338696 -0.43438655 -0.21252488
0001f0 5b 49 14 3f 36 15 97 3e e8 43 7c 3e e7 ea 8a be
       0.5792443 0.2950837 0.24635279 -0.2713234
000200 85 86 24 3e 07 96 de bd 10 4b f8 3e e4 61 9d 3d
       0.1606694 -0.10868459 0.48494768 0.07684687
000210 46 82 84 3e 21 47 d8 bb ac 20 8e be e8 ce c7 3e
       0.2588064 -0.006600276 -0.27759302 0.39025044
000220 cd 56 11 bf a0 7a 6f 3e 08 93 41 be 3c 18 3e be
       -0.5677307 0.23386621 -0.18903744 -0.18563932
000230 69 f7 94 3e c1 71 57 3d f7 64 aa bd 8e 54 8f 3e
       0.2909501 0.05259872 -0.08320039 0.27994198
000240 44 e1 b2 be 6d da 51 be 51 05 e2 3d 9c 1f 2f 3e
       -0.3493749 -0.20493479 0.1103617 0.17101902
000250 3f 90 36 3e cb 77 a1 3e 5e 19 21 be d1 96 dd 3e
       0.17828463 0.31536707 -0.15732333 0.43279126
000260 b8 90 b7 be 5e 40 8f bc ca 40 b9 3e 00 19 57 3e
       -0.358526 -0.017486747 0.36182243 0.2100563
000270 77 22 d2 3e 70 3a ba 3e ac 07 61 be 3c 25 53 be
       0.4104192 0.3637271 -0.21975583 -0.20619673
000280 7c dc c7 be f5 56 b8 3e 10 80 90 3e a6 a4 82 3e
       -0.39035404 0.36003843 0.28222704 0.25516242
000290 72 cd 20 be 97 74 8e be 42 0d 23 3e 4d 7e c0 3e
       -0.15703371 -0.27823326 0.15923026 0.3759636
0002a0 17 29 6d 3e 15 67 f8 bd 03 7c c9 3e 56 84 ff bd
       0.23160206 -0.12129036 0.39352426 -0.12476413
0002b0 0b 36 4d 3e 2f 4e 57 be 4f d5 6b 3e e0 54 a8 bd
       0.20040147 -0.21025918 0.2303059 -0.082193136
0002c0 93 fd c6 3e 44 67 9c be d6 a4 e2 bd 8c bc b4 be
       0.38865337 -0.30547535 -0.11066596 -0.353001
0002d0 ce dd 93 3e 89 5c 9e 3e 5b 66 9c 3e b7 75 99 be
       0.2888016 0.30929974 0.3054684 -0.29972622
0002e0 ab 46 73 be 28 99 a0 be dc 72 94 3d bb 41 62 bd
       -0.23757426 -0.3136685 0.0724847 -0.055238467
0002f0 4d d1 16 3d bd d8 d0 bc eb fa 0d 3d ff c2 7e be
       0.0368207 -0.025493974 0.034663122 -0.24879073
000300 bd f7 ae bc be b6 83 3e 44 40 40 3e 82 c0 af be
       -0.021358365 0.2572536 0.18774515 -0.3432656
000310 4f eb ff 3b fa 39 d1 bd da 22 93 3e 39 bd 88 be
       0.0078100334 -0.10216136 0.28737527 -0.26706865
000320 89 37 16 3c 9d de 5e bd ba d2 18 3d 9a 3e dc bc
       0.009168514 -0.05441152 0.03731034 -0.02688532
000330 6b 8f 8f be 8f 0f 87 3e 3c 83 bd 3e 44 59 49 be
       -0.28039107 0.26379058 0.37014186 -0.19662958
000340 98 9e 0e 3f 32 d4 83 be 90 d4 14 3e 09 07 22 be
       0.55710745 -0.2574783 0.14534211 -0.15822996
000350 33 d3 8c 3e 2a 7b 74 3e c9 2c 9b 3e 1c 45 a2 bd
       0.27504882 0.23875108 0.30307606 -0.07923338
000360 d0 f2 c8 bd 36 39 a1 be 49 37 b6 be d7 16 99 bd
       -0.09811938 -0.3148896 -0.35589054 -0.074750595
000370 df ca 33 3f 1a 11 9d 3d 0b 20 29 3e 3d 8c 07 3e
       0.7023143 0.076692775 0.1651613 0.1323709
000380 8e c3 48 3e 41 fb 7a be 93 35 fe bd ea 7f a3 3e
       0.19605848 -0.24509908 -0.12412562 0.31933528
000390 66 9e 95 3e c5 2f 92 bc e4 a6 ff bd 2c 74 38 3e
       0.2922241 -0.017845044 -0.12483004 0.18013066
0003a0 fb bc 0d be 00 32 1b 3e 1a f5 c1 3d f7 bd 1d 3d
       -0.13841622 0.15155792 0.094705775 0.038511243
0003b0 43 9d 12 bf 5b a5 7e 3e 68 1d e3 3e b5 48 ae bb
       -0.5727121 0.24867766 0.44358373 -0.005318726
0003c0 56 69 ac be 2a a7 9f 3e a5 d1 9f 3e 9c ac 4e 3d
       -0.33674115 0.31182224 0.31214634 0.050457582
0003d0 e4 6e e8 bd 16 8e 8c be 10 08 b8 bc 0f 0f a9 bd
       -0.11349276 -0.27452153 -0.022464782 -0.08254825
0003e0 e1 8a 4c 3e 18 b7 b8 3e 2a 71 80 be ef eb 77 3e
       0.19974853 0.3607719 -0.25086337 0.24211095
0003f0 ad ad b7 3c 54 7d 68 3c 34 a1 c5 3c b7 71 45 bc
       0.022421682 0.014190037 0.02412472 -0.0120510375

net.0.bias f4 [64]
000000 31 89 6f be 02 59 83 be 91 03 b1 be 80 54 e2 be
       -0.23392178 -0.25653845 -0.34573033 -0.44205093
000010 84 ea 4d 3d c2 e5 50 bd 93 96 6a be 8d e0 16 3f
       0.05027248 -0.051000364 -0.22909002 0.5893639
000020 c5 bb 9c be 8e 09 08 3f 1e 12 b9 bd c6 52 2b be
       -0.30612007 0.5313958 -0.09036659 -0.16730794
000030 ad 4f 8b bd fb ce 2c bd ec 11 22 be 18 49 96 bc
       -0.06802306 -0.04218958 -0.15827149 -0.0183454
000040 b2 5e cd 3e 51 56 91 3e dc 7a b4 be 17 c8 09 3f
       0.4011131 0.28386167 -0.35249984 0.5382094
000050 96 e2 9f 3e 0a 50 95 3d c9 62 26 bd 09 1e 2a 3e
       0.3122756 0.07290657 -0.040621553 0.1661302
000060 95 94 62 bd 5c 1c 17 3b 43 4b 2d 3e f9 a1 c3 3d
       -0.05531748 0.0023057675 0.16923241 0.09552378
000070 b1 10 9d be a7 95 dd bd 65 47 e5 3d 41 d8 c2 be
       -0.30676797 -0.108195595 0.11195258 -0.38055614
000080 59 64 1e bd e3 2a 38 3e 21 c1 1b 3d b6 be 73 3e
       -0.038669918 0.1798511 0.03802598 0.23803219
000090 6c 46 dc 3e 7b 73 3c 3e 41 a2 16 3f 72 88 20 be
       0.43022478 0.18403427 0.5884133 -0.1567705
0000a0 86 97 cf be 07 56 c7 3e 20 71 12 3f 10 3c 24 be
       -0.4054529 0.3893282 0.57203865 -0.16038537
0000b0 cb 1c f7 3d 40 3b b2 be 79 29 98 3e 1d b1 bf 3e
       0.12066039 -0.3481083 0.2971914 0.37439814
0000c0 82 1b 6d be 2f c0 67 bb 2d 24 56 be 50 cc 0c 3e
       -0.23155025 -0.0035362353 -0.20912237 0.13749814
0000d0 73 4f 51 be 9c d6 5b 3e d6 ff fb 3e 71 f7 d5 3e
       -0.20440464 0.21468586 0.49218625 0.41790345
0000e0 11 94 9b 3d c0 86 f2 3e 1e c9 10 bf 96 b8 65 3d
       0.07596601 0.4736843 -0.5655688 0.056084238
0000f0 2c d2 cb 3e a8 cb 13 bf a9 a1 53 be 36 5c 2d 3e
       0.39808786 -0.5773263 -0.20667137 0.16929707

net.2.weight f4 [32, 64]
000000 93 2e 06 bd d7 37 9c bd bb eb 1a 3c 3a 27 39 be
       -0.03275926 -0.07627838 0.009455617 -0.1808137
000010 fa 97 5b be 1d 1a 8b bc a7 d5 e6 3d d1 cf 32 3e
       -0.21444693 -0.016980225 0.1127122 0.17462088
000020 7d 78 21 3e 02 61 81 be 68 0e 18 3e 44 97 11 3d
       0.15768619 -0.25269324 0.14849246 0.03554465
000030 c0 c4 af 3d 3d 62 16 3e d2 5a 43 bd 27 ed dd 3a
       0.08582449 0.14685912 -0.047694035 0.0016931639
000040 9f a4 83 3c ac aa 76 3d b7 57 f8 bd 92 b1 0f 3d
       0.016069708 0.06022136 -0.12126105 0.035081454
000050 eb c0 8e 3e f4 94 08 3e 23 cc 01 3d d1 74 b0 3d
       0.2788156 0.13338071 0.03168882 0.08616031
000060 33 42 02 3e 04 6e 3b 3e f1 c3 ce bd de 76 dc bd
       0.12720565 0.18303686 -0.100959666 -0.107648596
000070 25 97 5f bd d3 a5 40 3c d8 c7 99 bc 36 3e 6d 3d
       -0.054587502 0.011758286 -0.01877205 0.057920657
000080 8b 25 f0 bc e1 4e ae 3d 68 92 17 3e f2 82 17 3e
       -0.029314777 0.08511139 0.14801943 0.14796045
000090 8a 0e 83 3e 56 25 18 3e 5c 6c 17 bd 60 1e 38 3e
       0.2559703 0.14857993 -0.036968574 0.17980337
0000a0 f3 a7 8d 3d 9b b4 d9 bd 13 46 9a 3d d2 03 09 bc
       0.069167994 -0.10630151 0.07532897 -0.008362727
0000b0 13 a7 50 3d 9d 0b 84 bc 16 4f 44 3d 02 15 2b 3e
       0.050940584 -0.016118819 0.047926985 0.16707233
0000c0 b8 ab cc 3d b6 16 a3 bd 33 54 c3 bd cf c9 98 bc
       0.0999369 -0.07963316 -0.09537544 -0.018650917
0000d0 80 0d 4e 3c 29 be 7b bd d1 7c 82 3d 0a 2c 2b 3c
       0.012576461 -0.061460648 0.06371463 0.010447511
0000e0 38 b0 36 bd 3a 89 ec 3c fd 2c d6 3b 33 da bf bd
       -0.04460165 0.028874028 0.0065361247 -0.0936779
0000f0 d9 98 8a bd 28 ef 0d 3e d4 cf 29 3c 09 82 d5 3b
       -0.067674346 0.13860762 0.0103644915 0.0065157455
000100 5a fe c8 3c c2 7e 62 be 9c 72 aa bd 83 39 49 be
       0.024535347 -0.22118667 -0.08322641 -0.19650845
000110 f0 d7 24 3e 98 ed 17 3d c3 96 ad bd ab f2 51 3e
       0.16097999 0.03709182 -0.08476021 0.20502727
000120 27 6f 51 be d3 2a bd 3d 19 bf 95 3c c5 97 2b bd
       -0.20452558 0.09236684 0.018279599 -0.041892786
000130 67 dc 1a bd 1c 83 88 3d 90 8d e6 3d 01 39 04 3e
       -0.03780785 0.06665632 0.1125747 0.1291237
000140 2c 35 73 3d 89 e9 71 bd a7 d4 02 bd 94 e5 7c 3c
       0.05937688 -0.059060607 -0.031941082 0.015435595
000150 4c 69 dc 3c 6c 08 44 3d fc ca 04 3d 75 d6 b9 bd
       0.026905678 0.047859594 0.032420143 -0.090741076
000160 3d 65 e9 bd 62 58 8c bc 05 1f ad bc 4f 58 16 bd
       -0.11396263 -0.017131988 -0.021132955 -0.03670531
000170 ab 22 28 3d 32 f1 47 bd f1 bd a7 bd 0a 08 8c bc
       0.041048687 -0.048814006 -0.08190525 -0.017093677
000180 5e da ec 3c 61 6f 14 3e e7 40 d9 bd a8 4e 10 3e
       0.02891272 0.14495613 -0.10608082 0.14092505
000190 e6 35 54 bd 71 ab db bd eb 5b 63 3d 21 49 fd bd
       -0.051809214 -0.10726059 0.05550758 -0.12367464
0001a0 7e d7 05 3d e6 3c e2 bb a6 de 04 3e 82 e9 87 3c
       0.032676212 -0.0069042323 0.12975559 0.016590837
0001b0 d8 7b 76 3c 0d 2a 29 3d 3f 98 b1 3d 8a ce d8 3c
       0.015044175 0.04129987 0.08671617 0.026465673
0001c0 65 60 a8 3d 6b 47 11 3d e8 4f de bb 77 64 05 bd
       0.08221511 0.0354685 -0.006784428 -0.032566514
0001d0 35 2c 42 bd db 01 3c ba 1b d2 38 bd 9d 46 9b 3c
       -0.04740544 -0.00071719073 -0.045122247 0.01895457
0001e0 18 2e bb 3d cc b3 b7 3d 42 e9 33 be 35 cd 93 3d
       0.09139651 0.089698404 -0.1756945 0.072168745
0001f0 cb 95 5d 3d 86 fb 94 bd 60 f9 ba 3d 8d 83 19 be
       0.05409793 -0.07274537 0.09129596 -0.14991589
000200 92 d1 bc bd 7c e7 a3 bd 04 32 a8 3d 54 ab 50 bd
       -0.0921966 -0.080031365 0.08212665 -0.05094464
000210 ca 07 f2 3d 2c e6 03 3d 80 bc b6 3d d4 7a ee 3d
       0.11817892 0.03220193 0.08922672 0.11644521
000220 12 53 e3 bd c6 52 f3 bd 2e 77 a5 3d ba 23 8f bd
       -0.11099829 -0.11881022 0.08079372 -0.06989236
000230 5c ef f8 bd 8c 1e 81 3d 90 86 c8 3c fc d1 8e 3d
       -0.12155029 0.063046545 0.024478227 0.06973645
000240 2e 94 f6 bd 74 92 e1 bd 00 6d ec 3d 28 42 7a 3d
       -0.12039982 -0.11014262 0.115442276 0.061098248
000250 d0 38 f7 3d 66 b1 8a bd c0 aa 23 3c 3c 0e a0 3d
       0.12071383 -0.06772117 0.00998944 0.07815215
000260 da 86 9c 3d 9e d6 d5 bd 80 92 f0 bd c0 0d f9 3d
       0.076429084 -0.104413256 -0.11746693 0.12160826
000270 18 47 80 bd 24 a1 82 bd 30 da e4 3d 50 12 48 3c
       -0.0626356 -0.063783914 0.111744285 0.012211397
000280 a8 3a d5 3d fc 69 00 3d 30 2e 10 bd e0 4f b6 3c
       0.104115784 0.031351075 -0.035200298 0.022254884
000290 f2 2d f1 bd 00 f9 ba 3b 0c d5 f3 bd 10 92 f7 bd
       -0.117763415 0.0057059526 -0.1190587 -0.12088406
0002a0 5c 06 1a 3d c4 1c c3 bd 1c 67 98 3d 58 59 26 bd
       0.03760372 -0.09526971 0.074415416 -0.04061255
0002b0 e4 8f 80 bd c0 24 74 3b 0a a0 ac bd 8a d2 fd bd
       -0.06277445 0.003725335 -0.084289625 -0.12393673
0002c0 18 8d ca bc 0c 29 53 bd 84 9d c0 3d b6 bc 86 3d
       -0.024725482 -0.051552817 0.09405044 0.065789625
0002d0 b8 bc bc 3d 1c 95 59 bd 24 0b 20 3d c0 a9 1d bc
       0.09215683 -0.053120717 0.039073125 -0.009622991
0002e0 d4 80 97 3d d0 87 f8 3c b8 3c f7 3c b4 0d 3c bd
       0.07397619 0.030338198 0.03018032 -0.045911506
0002f0 2e c5 a7 bd f0 a3 fd bc e0 47 d7 bd 62 b0 e0 3d
       -0.08191906 -0.03096196 -0.10511756 0.10971142
000300 75 b1 f4 3a 1b b2 7c 3e 6e 25 4f 3e 72 dd 86 3e
       0.0018668609 0.24677317 0.20229122 0.26340824
000310 91 6c 83 be 39 c1 1e 3c 8f 3f 8d 3c f4 69 a1 be
       -0.25668767 0.009689623 0.017242221 -0.31526148
000320 0f a3 53 3e 30 3e 8d 3e 1f 74 90 3d 20 7d 23 bd
       0.2066767 0.27586508 0.07053398 -0.03991425
000330 f4 4a cd 3d 68 8a db 3d 4e 89 b9 bd ef 27 55 bd
       0.10024062 0.10719758 -0.09059392 -0.052040037
000340 60 97 e5 bd 4a b0 04 bc 93 80 13 3e e7 7a 12 be
       -0.11210513 -0.008098671 0.14404516 -0.14304696
000350 d3 eb 4b be 2e ad 5e bd f0 d6 fb 3d c5 1a 87 3d
       -0.19914179 -0.054364376 0.122968554 0.06596903
000360 76 f3 22 bd a9 43 47 bd b8 b0 5a 3e ef d7 c2 3d
       -0.039782964 -0.04864851 0.21356475 0.09513842
000370 95 51 dd bd 45 7a 2a 3c 74 38 c6 bd 3b ea 89 3c
       -0.10806576 0.010405128 -0.09678736 0.016835323
000380 16 b6 3e 3d a8 9a bb 3c f5 2c 2e 3d 78 2b 9f 3c
       0.04656037 0.022900894 0.042523343 0.019429907
000390 8b f5 c3 be 77 98 6f 3d 96 e6 88 bd d7 49 2b 3e
       -0.38273272 0.05849501 -0.06684606 0.16727386
0003a0 df e5 ac 3d d9 f4 d1 3d 3a 90 7e be 5d 4c 8f 3d
       0.08442282 0.10251779 -0.24859706 0.06996987
0003b0 72 f5 f8 3d bf 53 32 3e d4 5f 42 3d b7 71 1a be
       0.1215619 0.17414759 0.04745467 -0.15082441
0003c0 66 47 94 3d 5f 07 8e bd 9b d5 2f 3e 82 dd 4e bd
       0.07240181 -0.06935 0.17171328 -0.050504215
0003d0 68 9a 9d 3d 6d 83 5f 3c dc 57 30 be 67 6e 6b 3d
       0.07695466 0.013642174 -0.17221016 0.057478335
0003e0 ca 22 60 3c 6a 23 7a 3d 05 1a 74 3e f3 64 2a 3d
       0.013680169 0.06106893 0.2383805 0.04160018
0003f0 d4 c2 e7 bd fa 62 13 3e ee 54 69 3d 34 62 da bc
       -0.113164574 0.14393225 0.05696576 -0.026658155

net.2.bias f4 [32]
000000 e0 24 f0 3d 77 c9 b9 3d a0 57 3e bc 2a e8 67 be
       0.11725783 0.090716295 -0.011617571 -0.22647157
000010 d1 01 84 3e ce 8a a1 3e 23 d6 1e 3e 2d ef 84 3e
       0.25782636 0.31551212 0.15511374 0.25963727
000020 22 d9 8a 3e 85 0d 0b 3e a2 7d f5 3d f4 a2 ee bc
       0.27118784 0.13579376 0.11986853 -0.029130436
000030 1d e2 c7 3d 2a c8 b1 bd d6 b9 3f 3e 91 e7 44 3e
       0.097599246 -0.086807564 0.18723235 0.1922896
000040 c3 fc 06 bd f3 11 e3 bd 94 09 3a 3e 99 a7 d4 bd
       -0.032955896 -0.11087408 0.18167716 -0.10383529
000050 78 b6 5f bd 56 e3 ea 3d 6d f7 6c 3e 0d 33 c0 3c
       -0.054617375 0.11469142 0.2314126 0.023461843
000060 df fb 4f 3e b1 c7 f8 bd 5b 47 db 3d 2c d5 dc bc
       0.20310925 -0.12147463 0.10706969 -0.026957117
000070 cf 1a 54 3d 93 c3 78 bc 20 70 11 3e 2c a7 10 be
       0.05178338 -0.015183347 0.14202929 -0.14126271

net.4.weight f4 [3, 32]
000000 cd 19 35 3e 40 e0 69 3d 84 d4 92 3c 36 e3 59 be
       0.17685623 0.057098627 0.017923601 -0.2127808
000010 99 4d a8 be 98 2b 2e 3e b1 0e fe bc 2c 0f 41 be
       -0.32871702 0.17008817 -0.031012865 -0.18853444
000020 10 1d e7 3d 8f 77 06 3e a9 fc 4b bd 70 dc 8e 3e
       0.1128484 0.13131545 -0.049801502 0.27902555
000030 45 52 8f bd 54 7b c3 3d 7e f2 e7 bd 5b f7 f5 be
       -0.069981135 0.09545007 -0.113255486 -0.4804028
000040 7d 47 fd bb e4 6a 0d 3e 42 c6 1b bd 94 25 43 3e
       -0.0077294693 0.13810307 -0.03803087 0.19057304
000050 ce 11 b4 3d 12 a7 47 3d 23 5f 16 3e f1 64 29 3c
       0.087924585 0.048743315 0.1468473 0.010339008
000060 a8 85 0e be 2a 95 ae be 78 f2 39 3c cc ee 98 3e
       -0.13918173 -0.34098178 0.011349313 0.29869688
000070 fa c6 eb 3b af 61 87 3d 50 7c c7 bc 67 54 66 3c
       0.0071953507 0.066104285 -0.024351269 0.014058209
000080 db c2 5a 3d 11 e9 44 3e 11 69 0a be 6e c5 57 be
       0.053408485 0.19229533 -0.13516642 -0.21071407
000090 a8 a5 b9 3e 7d a9 18 3e 23 b1 3d 3e 38 59 a2 3e
       0.36259198 0.14908405 0.18524604 0.31708694
0000a0 f1 70 3e 3e 99 3e 33 3e dc 37 0f 3e fe bb 03 be
       0.18597771 0.17504348 0.13986152 -0.12864682
0000b0 e6 8c f3 3d fb 2e 28 bc d2 58 05 be 80 d1 e3 3e
       0.118921086 -0.010265107 -0.13022164 0.44495773
0000c0 48 8c c5 bd 4f 2a 7c bc 3d 26 9d bd 19 ff 28 be
       -0.09645897 -0.0153909465 -0.07673309 -0.16503562
0000d0 75 d3 cc 3c c0 a1 12 3d 51 c4 a5 3d 2d 65 cf bd
       0.025003174 0.035798788 0.08094085 -0.101267196
0000e0 05 48 51 3e a2 10 a8 3d 63 e1 77 3b 91 3f 4e be
       0.2043763 0.082062975 0.003782355 -0.20141436
0000f0 f4 78 22 3d 88 e2 a5 bd 5b f1 6c bd 0c 69 08 be
       0.03966613 -0.08099848 -0.057847362 -0.13321322
000100 d6 65 54 bd 55 b7 1a be 7a fa 17 be 8c 36 be 3e
       -0.05185493 -0.15108998 -0.14841643 0.3715099
000110 5f 9a 01 3e 97 c1 e4 bd bb 1c b2 3d 96 9a 34 3c
       0.12656544 -0.11169737 0.08696886 0.011023184
000120 bd a9 aa be 69 d2 39 be 83 c6 0e 3d bc 10 8d 3e
       -0.33332625 -0.18146671 0.034857284 0.2755183
000130 b3 9d b1 3d f7 0c 99 bd ac fc 4e be 4e 43 33 bd
       0.08672657 -0.07473176 -0.20213574 -0.04376536
000140 81 03 4b 3d f5 4c da bd 7e 8b 20 be 78 94 25 3d
       0.04956389 -0.1065921 -0.15678212 0.040424794
000150 6f c4 e3 3d 27 25 47 be 18 d1 21 bc c2 b8 1f 3e
       0.11121451 -0.19447766 -0.009876512 0.15597823
000160 42 d0 99 bc 12 26 41 3e 85 8e 93 bd f7 ba 2a 3e
       -0.018776063 0.18862179 -0.07204918 0.16672884
000170 2a 09 74 be 1e 89 17 3e 6d 38 5d be 93 e4 bd 3d
       -0.23831621 0.147984 -0.21603556 0.09272113

net.4.bias f4 [3]
000000 c1 05 cd 3d 25 e9 20 bc 41 2d 2a be
       0.10010863 -0.009821211 -0.16618825
