mlp_classifier.pt (torch, 14542 bytes, 6 tensors)

net.0.weight f4 [64, 11]
0	0x3d36ca7e	0.044626705
1	0x3dbe952c	0.09305796
2	0xbe9eb134	-0.3099457
3	0x3cd4d510	0.025980502
4	0x3e038982	0.12845424
5	0x3e9a5ea5	0.30150333
6	0x3b8c1478	0.004274901
7	0xbe43c9c3	-0.19119935
8	0xbded4150	-0.11584723
9	0xbd9e935b	-0.077429496
10	0x3e0162a9	0.12635292
11	0xbe54b562	-0.20772317
12	0xbeb17f2a	-0.3466733
13	0x3e0f6ecf	0.14007114
14	0xbd03e469	-0.03220025
15	0x3e88a83c	0.26690853
16	0xbe2df689	-0.16988577
17	0x3debb7e9	0.115096875
18	0x3ea836c7	0.32854292
19	0x3dc1fec6	0.09472422
20	0xbdd73b23	-0.10509326
21	0x3ea07861	0.31341842
22	0xbdc076e4	-0.093976766
23	0x3ea0207d	0.31274787
24	0x3e37d3e0	0.17951918
25	0xbdcae66a	-0.09907229
26	0x3e8330bd	0.25623122
27	0x3d535d39	0.051602576
28	0xbe6dd0db	-0.23224203
29	0xbda2b42e	-0.07944523
30	0x3e394eb1	0.18096425
31	0xbc0c904f	-0.008579328
32	0xbd8468eb	-0.06465324
33	0xbe5eb03f	-0.2174692
34	0xbe01bf48	-0.12670624
35	0x3e45162f	0.19246744
36	0x3e3be71b	0.18349878
37	0xbde6692c	-0.11250529
38	0x3e63de65	0.22252806
39	0xbcbfc8f3	-0.02341125
40	0xbe16b1e1	-0.14716293
41	0x3db0ac07	0.086265616
42	0x3e9b4766	0.3032791
43	0x3e0367c3	0.1283255
44	0x3e44b365	0.19209059
45	0x3e6f7a75	0.23386557
46	0xbd927a7b	-0.071522675
47	0xbe373e94	-0.17894965
48	0xbe77a1d5	-0.24182828
49	0x3dae61fb	0.08514782
50	0x3d2ad2cf	0.04170495
51	0x3de5a9e3	0.11214044
52	0xbe51b699	-0.20479812
53	0xbd876e96	-0.066128895
54	0x3e1ed4c7	0.15510856
55	0x3d6bdc07	0.05758288
56	0xbe06b380	-0.13154411
57	0x3e7e1d99	0.24815978
58	0x3e029eb7	0.12755857
59	0xbede6e1a	-0.43443376
60	0x3e477057	0.19476448
61	0x3dab0ebf	0.08352422
62	0xbd90758d	-0.07053671
63	0xbcea8c7c	-0.028631441
64	0xbe4035fc	-0.18770593
65	0x3d105eae	0.035246544
66	0xbe3e91e9	-0.18610348
67	0x3e287331	0.16450192
68	0x3ebc6116	0.3679282
69	0x3ceadaae	0.028668728
70	0xbe6ad8e9	-0.22934307
71	0x3e05f371	0.13081147
72	0xbeada849	-0.33917454
73	0x3dbea79c	0.09309313
74	0x3dc61fb6	0.09674017
75	0xbd8a86cd	-0.067639925
76	0x3e539210	0.20661187
77	0xbe6e183a	-0.23251429
78	0xbe9e819d	-0.30958262
79	0xbe8ea8aa	-0.27863055
80	0x3de9d1c6	0.11416964
81	0xbd8bb0ed	-0.06820855
82	0x3d3f3216	0.046678625
83	0x3df5ad74	0.11995974
84	0xbe558af8	-0.20853794
85	0xbe3459dd	-0.17612405
86	0xbe8bb065	-0.27283016
87	0x3e81cc28	0.2535107
88	0x3d3cb173	0.046067666
89	0x3e1d9482	0.15388682
90	0x3bcdac65	0.0062766545
91	0x3e74aa32	0.2389305
92	0x3d92bc9e	0.07164882
93	0xbbfa2a9e	-0.007634475
94	0xbd06ca4d	-0.032907773
95	0x3b8f43b7	0.004372086
96	0x3d9b9ee6	0.07598667
97	0x3ea7cc7c	0.32773197
98	0x3dfa3a80	0.12218189
99	0x3e748ae5	0.23881109
100	0xbd5424ea	-0.051793016
101	0x3e49bd71	0.19701172
102	0x3e3f2f40	0.18670368
103	0x3e81fc04	0.25387585
104	0x3dfcdd43	0.1234689
105	0xbb0f2a4e	-0.0021845284
106	0x3db55bc8	0.088553965
107	0xbdfb32f3	-0.12265577
108	0x3e0e2564	0.13881451
109	0xbe01c13a	-0.12671366
110	0xbe3eb9c8	-0.18625557
111	0xbdf6724b	-0.120335184
112	0x3e1acfa5	0.15118273
113	0xbc93b24d	-0.018029356
114	0x3ea910f0	0.33020735
115	0x3d420c05	0.047374744
116	0x3de1379e	0.10996936
117	0xbe4ef852	-0.20211914
118	0x3c32a5ec	0.010903817
119	0x3eaec558	0.34134936
120	0x3ea47da0	0.32127094
121	0x3e008930	0.12552333
122	0x3d50d9cf	0.05098897
123	0x3d843566	0.064554974
124	0x3e1d3d73	0.15355472
125	0x3d01ad0d	0.031659175
126	0xbe126629	-0.14296784
127	0x3e8f7384	0.2801782
128	0x3e928a7f	0.2862129
129	0x3da7954a	0.081827715
130	0xbde042c2	-0.10950233
131	0x3e3dd6ae	0.18538925
132	0x3e49e32c	0.19715565
133	0x3e4d969c	0.20076984
134	0x3e314d52	0.17314652
135	0xbe6dd4bc	-0.23225683
136	0xbe7a7912	-0.24460247
137	0x3e3f8028	0.18701231
138	0x3e109316	0.14118609
139	0xbe46a481	-0.19398691
140	0xbe1fc1f1	-0.15601327
141	0x3e0320a0	0.12805414
142	0xbd022b22	-0.031779416
143	0xbe744633	-0.23854904
144	0xbd172ec0	-0.03690982
145	0x3d28d073	0.041214418
146	0xbd91eec3	-0.07125618
147	0xbda9d694	-0.08292881
148	0x3e13980e	0.14413473
149	0xbe58d533	-0.21175079
150	0xbe215e0f	-0.15758537
151	0xbe1c14fb	-0.15242378
152	0x3e87c739	0.26519182
153	0x3ddeaf5a	0.108732894
154	0xbdd55de5	-0.104182996
155	0xbc7b8cc2	-0.0153533835
156	0xbcc8a46c	-0.024492465
157	0x3e554e13	0.20830564
158	0x3ea14881	0.3150063
159	0x3e77493c	0.2414903
160	0x3da6f8df	0.08152937
161	0xbddefa22	-0.10887553
162	0xbddc0908	-0.1074391
163	0x3ebc3928	0.36762357
164	0xbe6e3dcf	-0.23265766
165	0xbe4c7a80	-0.19968605
166	0x3dd66cc7	0.104699664
167	0x3e73b2f1	0.2379873
168	0x3e15ffd7	0.14648376
169	0xbb6afbcb	-0.0035855647
170	0xbd9c6a61	-0.07637478
171	0x3c68932b	0.014195244
172	0xbe0d8e49	-0.13823809
173	0xbe3b08b7	-0.18265043
174	0x3afaac2b	0.0019124796
175	0x3e74b32f	0.23896478
176	0xbe749492	-0.238848
177	0x3e44dbc3	0.19224457
178	0x3e4c5646	0.19954786
179	0xbe31ad34	-0.17351228
180	0x3db3439a	0.08753128
181	0x3ccf63a1	0.025316061
182	0xbe1e4df5	-0.15459426
183	0xbe86d872	-0.2633701
184	0x3e845cbc	0.25852
185	0x3d101b02	0.035182007
186	0x3ea40c54	0.32040656
187	0x3c9b9372	0.018991206
188	0x3e48e40f	0.19618247
189	0x3e24fd25	0.16112192
190	0x3da47d17	0.080316715
191	0x3cf0892f	0.02936229
192	0xbd7820fb	-0.060578328
193	0x3e5d91fc	0.2163772
194	0x3e9b0dfe	0.30284113
195	0xbe892cc5	-0.2679197
196	0x3e35a7aa	0.1773974
197	0xbe2bcf54	-0.16778308
198	0xbd5b6608	-0.0535641
199	0x3e7a2b16	0.24430498
200	0xbe316f1b	-0.1732754
201	0xbe37e3bf	-0.17957972
202	0x3de26c90	0.11055863
203	0xbd56cbfd	-0.052440632
204	0xbdc438bd	-0.095811345
205	0x3e9b7296	0.3036086
206	0xbd344e3d	-0.044019926
207	0xbe4d70b2	-0.20062521
208	0x3d16acc5	0.03678586
209	0x3db1a4ee	0.08674036
210	0xbe085a09	-0.13315596
211	0xbeaca80d	-0.33721963
212	0x3e79cac7	0.2439376
213	0x3b3a5f2f	0.0028438081
214	0x3e87e8d8	0.26544833
215	0x3dd25e70	0.10271919
216	0xbd10d863	-0.035362612
217	0xbe08885d	-0.13333268
218	0xbdc098e4	-0.094041616
219	0x3e081c03	0.13291936
220	0xbd6293a5	-0.055316586
221	0x3c0f6df3	0.008754241
222	0xbea3875b	-0.31939206
223	0x3e22ed02	0.15910724
224	0x3e8a188a	0.26971847
225	0xbe740a2f	-0.2383201
226	0x3e5eb2fc	0.21747965
227	0x3e84590f	0.25849196
228	0xbeaca5b2	-0.33720165
229	0x3e9099a9	0.28242233
230	0x3c9b6132	0.018967245
231	0x3d07f294	0.033190325
232	0xbe799d86	-0.24376497
233	0xbdd0a5a5	-0.10187844
234	0xbe855d6f	-0.26047847
235	0xbb961107	-0.0045796665
236	0x3cba19fa	0.022717465
237	0xbe363cd0	-0.17796636
238	0xbdba4392	-0.09094919
239	0x3ece0507	0.4023821
240	0x3d9fb458	0.0779807
241	0xbbfa224b	-0.0076334826
242	0xbc025095	-0.007953783
243	0xbe833c4b	-0.25631937
244	0xbe9a5be0	-0.3014822
245	0xbe2deabc	-0.16984075
246	0x3d6c307d	0.05766343
247	0xbd072d6b	-0.0330023
248	0xbe7aee0d	-0.24504872
249	0x3e318352	0.17335251
250	0xbd8b67d9	-0.06806917
251	0xbdfcdc47	-0.12346702
252	0xbe9c0789	-0.304745
253	0xbe3dfaf3	-0.18552761
254	0xbe7555e5	-0.23958547
255	0xbde732d8	-0.112889946

net.0.bias f4 [64]
0	0x3dcded83	0.100550674
1	0x3e05e7a3	0.13076644
2	0xbd6eb748	-0.05828026
3	0xbe28832b	-0.16456287
4	0xbde43f58	-0.11144894
5	0xbe9e77a0	-0.30950642
6	0xbe2ce4a9	-0.16884102
7	0x3d987718	0.0744459
8	0x3eaa5a59	0.33272055
9	0x3e81b22f	0.25331256
10	0x3e495db1	0.19664647
11	0xbdeb409c	-0.11486933
12	0xbeca768d	-0.39543572
13	0x3d4da3c5	0.05020501
14	0x3eeb59bf	0.45966908
15	0xbe9f0424	-0.31057847
16	0x3ec0a2c4	0.3762418
17	0x3cefffbf	0.029296754
18	0x3e41783b	0.1889352
19	0xbecee43b	-0.404085
20	0xbe05ae3c	-0.13054746
21	0x3d93783c	0.07200667
22	0x3e20849d	0.15675588
23	0x3f098e41	0.5373269
24	0xbde5ebbb	-0.11226603
25	0x3e9bc69f	0.30424973
26	0xbdbf4cfb	-0.09340855
27	0x3e8abc54	0.27096808
28	0x3ebac75f	0.36480233
29	0xbe85464a	-0.2603019
30	0xbdba2632	-0.090893164
31	0x3e72f60d	0.23726673
32	0x3d57680a	0.052589454
33	0x3e764f97	0.24053799
34	0x3db888ac	0.09010443
35	0xbc1f2838	-0.009714179
36	0xbe666912	-0.22501019
37	0xbe8b8271	-0.27247956
38	0xbd75a350	-0.0599702
39	0x39ec31b5	0.00045050462
40	0xbe040a7f	-0.12894629
41	0x3dd2dfe6	0.102966115
42	0xbe12a06d	-0.1431901
43	0xbec908bb	-0.39264473
44	0x3e553993	0.20822744
45	0xbe8db8b7	-0.2767999
46	0x3dd74768	0.105116665
47	0xbdd82bba	-0.10555215
48	0x3bbe9677	0.0058162767
49	0x3e935104	0.28772748
50	0xbe0f2607	-0.1397935
51	0xbdb0095d	-0.08595536
52	0x3e9046e1	0.28179076
53	0x3ec4e1d1	0.38453534
54	0xbe2081d4	-0.15674525
55	0xbe46140e	-0.19343588
56	0x3e524195	0.2053283
57	0xbd958f3c	-0.073027104
58	0x3e86424a	0.2622245
59	0xbec0e248	-0.3767264
60	0x3e6e34c0	0.2326231
61	0x3d90eac1	0.07076026
62	0x3dfaf3fc	0.122535676
63	0xbe943605	-0.28947464

net.2.weight f4 [32, 64]
0	0xbdad3774	-0.084578425
1	0x3b93e67f	0.0045135613
2	0x3dc34e50	0.09536421
3	0x3dc4af77	0.0960378
4	0x3cab2f68	0.020896628
5	0x3d6fb613	0.05852325
6	0x3d75558d	0.05989604
7	0xbde1dc98	-0.11028403
8	0x3d96fe79	0.073727556
9	0xbd4cc498	-0.049992174
10	0x3bcf3c6b	0.006324341
11	0xbd970415	-0.073738255
12	0xbda0101a	-0.07815571
13	0x3c95f9f8	0.018307671
14	0xbda9161d	-0.08256171
15	0x3bb02620	0.0053756386
16	0x3c83136f	0.016000478
17	0x3d58fefc	0.052977547
18	0xbddde5ef	-0.10834872
19	0x3cd452d8	0.02591841
20	0xbdfb7606	-0.122783706
21	0x3d3e020d	0.046388675
22	0xbdc68d70	-0.09694946
23	0x3d2d7cd9	0.042355392
24	0xbe0411a7	-0.12897359
25	0x3cf592f8	0.029977307
26	0xbc1ac2fe	-0.009445904
27	0x3ba576c0	0.0050495565
28	0xbdb450ab	-0.08804449
29	0x3db6e688	0.08930689
30	0x3d140256	0.03613504
31	0x3d3be4b7	0.045872416
32	0xbdf9033a	-0.121588185
33	0x3d8597e6	0.06523113
34	0x3b0b7769	0.002128089
35	0x3c826b18	0.015920207
36	0x3cf0aee0	0.029380262
37	0xbc62fde0	-0.013854474
38	0xbd34c5f4	-0.044134095
39	0x3cc4b0f0	0.024010152
40	0xbdd78b29	-0.105245896
41	0x3d282f29	0.0410606
42	0x3c18d5e0	0.0093283355
43	0xbd4179dd	-0.04723536
44	0xbdec79bb	-0.11546656
45	0xbcd787c0	-0.026309848
46	0x3dc267df	0.09492468
47	0xbb574731	-0.003284883
48	0x3da19691	0.078900464
49	0xbd8a1082	-0.0674143
50	0xb89c4000	-7.4505806e-05
51	0x3d6823b8	0.05667469
52	0x3dd87ad8	0.105703056
53	0x3d4b7139	0.049668524
54	0xbe001d40	-0.12511158
55	0x3dfea5ec	0.12433991
56	0x3da82366	0.08209877
57	0xbd30666a	-0.04306642
58	0xbdf3d6f4	-0.119062334
59	0xbd88eacc	-0.06685409
60	0x3de9fc50	0.11425078
61	0xbd3782c8	-0.044802457
62	0x3ce66b50	0.028127342
63	0xbdbc1ba6	-0.09184961
64	0xbdb7065f	-0.08936762
65	0x3deb8548	0.11500031
66	0x3c4ed6a3	0.012624416
67	0x3d91a513	0.071115635
68	0x3c99736c	0.018731795
69	0x3d0c7401	0.034290317
70	0xbe4ec962	-0.20194009
71	0xbd8a763b	-0.06760832
72	0x3e00bacd	0.12571259
73	0x3da35352	0.079748765
74	0xbcbdac26	-0.023153376
75	0x3dc17330	0.094457984
76	0x3cab9f5e	0.020950016
77	0xbd0a7d54	-0.03381093
78	0x3daedf04	0.085386306
79	0x3d8848ea	0.06654532
80	0xbe016dd2	-0.1263955
81	0x3e432765	0.19057997
82	0xbbea4a13	-0.0071499436
83	0x3c97603c	0.018478505
84	0xbd7eacee	-0.062176637
85	0xbed7eb1b	-0.4217156
86	0xbcdc78ec	-0.026913129
87	0x3e88a8ea	0.2669137
88	0xbdd0b094	-0.101899296
89	0xbd9e40a4	-0.07727173
90	0xbdd22bcf	-0.10262262
91	0xbe135c0b	-0.1439058
92	0x3e870eab	0.26378378
93	0x3cf4d475	0.029886464
94	0xbe8b65bd	-0.27226058
95	0x3e1165e9	0.14199032
96	0x3dd212c4	0.102574855
97	0x3d501786	0.050803684
98	0xbd9bebe8	-0.07613355
99	0xbdfc1941	-0.12309504
100	0xbdd32d66	-0.103113934
101	0xbcb53900	-0.022121906
102	0xbdb51c98	-0.088433444
103	0xbc183793	-0.009290594
104	0xbd76d064	-0.06025733
105	0x3c245a75	0.010031332
106	0xbd50c7f3	-0.050971936
107	0x3cd695e9	0.02619453
108	0xbe784d5b	-0.24248259
109	0x3b8c46c0	0.004280895
110	0x3d1cf445	0.03831889
111	0x3db2744a	0.08713587
112	0xbd0bf934	-0.034173205
113	0x3e0b19a6	0.13584003
114	0xbcb81de8	-0.022475198
115	0xbd9ea744	-0.07746747
116	0xbe1bbfb0	-0.15209842
117	0x3db86920	0.09004426
118	0xbdbeafb8	-0.093108594
119	0xbd601f90	-0.0547176
120	0x3dd5694b	0.10420474
121	0xbdb91eb5	-0.0903906
122	0xbc5c1e8d	-0.013435018
123	0xbdb28032	-0.087158576
124	0x3d23e71f	0.040015336
125	0xbc12b34f	-0.008953883
126	0x3d2be824	0.041969433
127	0xbe443c54	-0.19163638
128	0x3d8f6087	0.07000833
129	0x3d6ab3f2	0.057300515
130	0x3daa88fc	0.08326909
131	0x3dc49ac9	0.095998354
132	0x3e0f6801	0.14004518
133	0x3da96508	0.08271223
134	0x3e6812a6	0.22663364
135	0xbb21e056	-0.0024700365
136	0xbd91342c	-0.07090029
137	0x3d32f5e6	0.04369154
138	0xbae254c1	-0.001726769
139	0x3d303cb4	0.04302664
140	0x3d9140fd	0.07092474
141	0x3de93974	0.113879114
142	0xbd5680ef	-0.052369054
143	0xbdefa934	-0.11702195
144	0xbdd5f250	-0.10446608
145	0x3befbf53	0.007316509
146	0x3b15ecce	0.0022876742
147	0xbd6bd7ee	-0.057578973
148	0xbd39241f	-0.045200463
149	0x3c913fc0	0.017730594
150	0xbdbea4ea	-0.093087986
151	0xbce3683a	-0.02775966
152	0x3d9035fc	0.07041547
153	0x3e254354	0.16138965
154	0xbdd38a4c	-0.103291124
155	0xbd5e0153	-0.05420048
156	0xbc0396bf	-0.008031546
157	0x3da07cca	0.078363016
158	0x3dab8bcb	0.08376273
159	0xbdf353fd	-0.11881254
160	0x3d83c170	0.0643338
161	0xbd614c50	-0.055004418
162	0xbdc554e0	-0.09635329
163	0x3d89314d	0.066988565
164	0x3d0dec48	0.034649163
165	0xbdd939ae	-0.10606705
166	0xbda3a34a	-0.07990129
167	0x3dd5c870	0.10438621
168	0xbc8ad579	-0.016947495
169	0xbd8ac069	-0.067749806
170	0x3db02467	0.08600693
171	0x3dae2d7c	0.08504769
172	0x3daf8286	0.08569817
173	0x3dad1302	0.08450891
174	0xbd7e2673	-0.062048387
175	0x3d99c774	0.07508746
176	0x3df79039	0.12088055
177	0x3df00733	0.11720123
178	0x3dbe0e9a	0.09280129
179	0xbe40dffa	-0.1883544
180	0xbbec98ad	-0.007220349
181	0xbc25e598	-0.01012554
182	0x3d611b1d	0.054957498
183	0xbb4f8400	-0.0031664371
184	0x3e7ea917	0.2486919
185	0x3d741981	0.059594635
186	0xbb190a18	-0.0023351964
187	0x3dece096	0.11566274
188	0x3c44c7be	0.012010513
189	0xbba9c296	-0.005180667
190	0xbd8f26ea	-0.06989844
191	0x3e19c517	0.1501659
192	0x3d43a6ac	0.047766373
193	0xbc450346	-0.012024706
194	0x3e0f7faa	0.14013544
195	0x3bbb0504	0.005707385
196	0xbe5969af	-0.21231721
197	0xbca0ed07	-0.019644273
198	0x3e11e1c2	0.14246276
199	0xbc515d1d	-0.012778548
200	0x3cfc24a9	0.0307792
201	0x3dea84db	0.114511214
202	0x3db9c598	0.09070891
203	0x3d5e2441	0.054233793
204	0x3dbcfd8b	0.09228047
205	0xbdcaded0	-0.09905779
206	0xbcf74537	-0.030184371
207	0xbda4b050	-0.080414414
208	0x3d11be1a	0.035581686
209	0xbe189719	-0.14901389
210	0xbd1a9e8b	-0.037748855
211	0xbdd736a1	-0.105084665
212	0xbd1587ec	-0.03650658
213	0xbc4883a9	-0.0122384215
214	0xbdf8209e	-0.12115596
215	0xbd73d731	-0.059531394
216	0x3c971323	0.018441742
217	0xbe085fd5	-0.13317807
218	0xbcbeb035	-0.023277381
219	0xba35cc00	-0.00069350004
220	0x3d433824	0.04766096
221	0x3c6e20a4	0.014534149
222	0xbd14dc5a	-0.036342956
223	0x3daadc8c	0.08342847
224	0x3d0c53df	0.034259673
225	0xbdf96011	-0.12176526
226	0x3d099d14	0.033597067
227	0xbc5637ff	-0.013074874
228	0x3de316a8	0.11088306
229	0xbd448ebc	-0.047987685
230	0x3cb42787	0.021991504
231	0xbdc630c8	-0.09677273
232	0x3d79374d	0.060843755
233	0x3dd925a3	0.10602882
234	0x3da39427	0.07987242
235	0x3c0813c8	0.0083054975
236	0xbbaebac0	-0.005332321
237	0x3dfa3e98	0.1221897
238	0xbdb0aad7	-0.08626335
239	0xbe15c821	-0.14627124
240	0xbd538a5f	-0.051645633
241	0xbdbc6693	-0.09199252
242	0xbde540bc	-0.11193988
243	0x3e1cc998	0.15311277
244	0x3de97435	0.11399118
245	0xbd04c4c4	-0.032414213
246	0x3d9cbe54	0.0765349
247	0x3c05ff80	0.008178592
248	0xbe919b1c	-0.28438652
249	0x3d820c36	0.06349985
250	0x3dd00b39	0.101583906
251	0x3def1e0e	0.11675654
252	0xbd06e117	-0.032929506
253	0xbcced7e9	-0.025249438
254	0xbd776db0	-0.06040734
255	0xbe2f837a	-0.17139998

net.2.bias f4 [32]
0	0xbd8728c4	-0.06599572
1	0x3e0237ad	0.12716551
2	0xbe10169c	-0.14071125
3	0xbdb021f7	-0.08600228
4	0x3cb65c0b	0.022260686
5	0x3dfdc514	0.12391105
6	0xbe88ac2e	-0.26693863
7	0x3cb43dcb	0.022002121
8	0xbdc832f7	-0.09775346
9	0xbd869016	-0.06570451
10	0x3ea459c5	0.3209974
11	0x3d8d7137	0.0690636
12	0x3cf1ce05	0.029517183
13	0x3e98142c	0.2970289
14	0x3a537d00	0.00080676377
15	0xbda6113b	-0.08108755
16	0xbb189b82	-0.002328605
17	0x3e403a6f	0.1877229
18	0x3dae6574	0.085154444
19	0xbda65a92	-0.08122744
20	0xbe31325d	-0.17304368
21	0xbdb56210	-0.088565946
22	0xbd250229	-0.040285263
23	0x3d51fa8d	0.051264334
24	0xbd32a2de	-0.043612354
25	0x3c8c8165	0.017151544
26	0x3db70cc1	0.089379795
27	0xbda28f0b	-0.079374395
28	0xbc0eb15e	-0.00870928
29	0x3ea183dc	0.31545913
30	0xbd806aa4	-0.0627034
31	0x3c063e6d	0.008193594

net.4.weight f4 [3, 32]
0	0xbe30abbe	-0.17253014
1	0x3e30e76d	0.17275782
2	0x3d57829a	0.052614786
3	0xbe2f0b0e	-0.17094061
4	0xbd9cec2d	-0.076622345
5	0xbe259989	-0.1617185
6	0xbebd8939	-0.37018755
7	0xbcf54ffd	-0.029945368
8	0xbcf5f4d8	-0.030023977
9	0x3e102a78	0.140787
10	0x3d96a8ef	0.0735644
11	0xbe21f977	-0.1581782
12	0x3e07455d	0.13210054
13	0x3e03fbe0	0.12889051
14	0xbe2fe5e8	-0.17177546
15	0xbc6ad44f	-0.014332845
16	0xbd92228e	-0.07135497
17	0x3db004d5	0.08594672
18	0xbc9b9b00	-0.018994808
19	0x3e2145e7	0.15749322
20	0xbe51c9e8	-0.20487177
21	0xbe0c9a5c	-0.13730758
22	0x3db861ff	0.09003066
23	0xbe3386bf	-0.1753187
24	0x3ab92f5c	0.0014128494
25	0xbe0737c4	-0.13204867
26	0x3d18730d	0.037219096
27	0x3d7467ba	0.059669234
28	0x3d8985b5	0.06714956
29	0x3df9c992	0.121966496
30	0x3e0884ee	0.13331959
31	0xbe185709	-0.14876951
32	0xbdc952fe	-0.09830283
33	0xbe4ca198	-0.19983518
34	0xbdcb66b3	-0.09931698
35	0x3dd0ecf7	0.102014475
36	0xbd15f4ff	-0.0366106
37	0x3e3804f6	0.17970642
38	0xbca31b42	-0.019910458
39	0xbda1f6e4	-0.07908419
40	0xbd79c954	-0.060983017
41	0x3df9f156	0.12204234
42	0x3d1e1173	0.03859086
43	0xbd1664c9	-0.03671721
44	0x3e175c2a	0.14781252
45	0xbd8feb10	-0.070272565
46	0xbdd4c97f	-0.10389995
47	0xbddd028e	-0.10791503
48	0xbe50c369	-0.20387043
49	0xbe3a540c	-0.18196124
50	0x3c0b5cbd	0.008505997
51	0x3c1a057a	0.00940072
52	0x3a10d8b3	0.0005525455
53	0x3dda0644	0.10645726
54	0xbcc5a4e9	-0.024126487
55	0x3dd37632	0.10325278
56	0xbe3d0027	-0.1845709
57	0x3e1c8a63	0.15287165
58	0x3dde027b	0.10840317
59	0xbe11cf78	-0.142393
60	0x3e0057a1	0.12533428
61	0x3e249124	0.16070992
62	0xbd53cc21	-0.051708344
63	0x3d3eb192	0.046556063
64	0xbdde45a8	-0.108531296
65	0xbe165194	-0.14679557
66	0x3e3abe96	0.18236765
67	0xbd90bf87	-0.07067781
68	0xbe13054c	-0.1435749
69	0xbcbd68ae	-0.023121204
70	0x3e0a2c5c	0.13493484
71	0xbdfe5948	-0.12419373
72	0xbdb342e9	-0.087529965
73	0xbdd60c5a	-0.104515746
74	0xbdee6a14	-0.116413265
75	0xbe258dba	-0.16167346
76	0xbe73d16f	-0.23810361
77	0xbe8e2989	-0.27766064
78	0xbe186449	-0.14882006
79	0x3de27b72	0.110587016
80	0x3e4bbe12	0.19896725
81	0xbdc4304c	-0.095795244
82	0xbdaeee41	-0.08541537
83	0x3e377177	0.17914377
84	0x3e2c6516	0.16835436
85	0xbe1a34e2	-0.15059236
86	0x3d53682e	0.051613025
87	0xbd28fcd6	-0.04125675
88	0x3e1f1d30	0.15538478
89	0x3e3c186a	0.18368688
90	0xbe1daebb	-0.15398686
91	0x3ce6cbbb	0.028173318
92	0x3e022a9a	0.12711564
93	0xbeb75be1	-0.35812286
94	0xbdde7ff0	-0.10864246
95	0xbc9167f6	-0.017749768

net.4.bias f4 [3]
0	0xbd9662cb	-0.07343062
1	0xbcc5e8cb	-0.024158856
2	0xbe7c25e9	-0.24623837
