mlp_classifier.pt (torch, 16724 bytes, 8 tensors)

net.0.weight f4 [64, 10]
000000 e3 59 47 bd 1f e5 58 3e ee 5b 1c 3e e2 1e 86 bd
       -0.048669707 0.21181153 0.15269443 -0.06548859
000010 d2 f3 e6 3d 8d ff 03 3e 41 55 27 3e c3 d0 82 3e
       0.11276974 0.12890454 0.16341116 0.25549898
000020 1a 05 34 3e 6a 07 61 bf 6c 00 f0 3d 0a 5c 7b 3d
       0.17580071 -0.8790194 0.117188305 0.061367072
000030 19 a0 32 3e a3 0b c1 3e 69 ce dc be 6a 17 c9 3d
       0.17443885 0.3770419 -0.43126228 0.09818919
000040 1d 6b 68 3e f5 f4 0d bc cd c3 3c be f4 f9 e9 3d
       0.2269711 -0.008664359 -0.18434067 0.11424628
000050 18 81 2d bd 68 84 72 3e 2b 37 42 bd 13 65 5f 3e
       -0.04235944 0.23683321 -0.047415894 0.218159
000060 2c 13 fb 3d ac 73 e6 bd f3 ff 02 be 68 28 95 3e
       0.12259516 -0.112525314 -0.1279295 0.2913239
000070 f7 35 b7 bd 22 51 8d 3e 9c 14 a1 3d ba d8 71 3c
       -0.0894584 0.27600962 0.07865259 0.014761144
000080 27 db d8 3c 44 67 68 3e 8b fe f2 3c dd 3b e5 be
       0.026471687 0.22695643 0.029662391 -0.44772235
000090 c9 72 b2 3d b1 ad 9e 3e f8 56 fa bd d8 11 c4 3e
       0.087133 0.3099189 -0.12223619 0.38294864
0000a0 1b 9b 2f bd 18 e5 93 be b8 84 82 3d 7e fb 81 3e
       -0.04287253 -0.28885722 0.0637297 0.25387186
0000b0 67 15 69 3e 31 71 9f 3e 28 03 93 3e 22 d2 88 be
       0.2276207 0.31141046 0.28713346 -0.2672282
0000c0 44 d2 9a 3e 61 dd 15 bf 84 95 5b bd 39 c9 f9 bc
       0.30238545 -0.5854092 -0.053609386 -0.030491458
0000d0 73 c2 d0 bd e4 b5 c8 bd 9a 0c 70 3e 79 af 63 3e
       -0.10193338 -0.09800318 0.23442307 0.22234906
0000e0 6f 28 8f 3e 73 45 b5 3e 03 0a a5 3d 15 d5 c3 3e
       0.27960536 0.35404548 0.0805855 0.38248506
0000f0 6c 25 68 3d 1f 2e bb 3e 52 be 56 bd 5c 0b 61 3d
       0.056676313 0.36558625 -0.052427597 0.054942474
000100 3b 2d cc 3d ba 9b 1b be 79 5f 48 be 3e 03 30 3e
       0.099695645 -0.15196124 -0.1956767 0.17188737
000110 06 f9 2a 3e 9d e5 76 bf ad e2 07 be c2 92 6d be
       0.16696557 -0.9644411 -0.13270064 -0.23200515
000120 1b 54 4e bd 59 9d 25 bd f9 37 84 3d 16 4d 07 be
       -0.050373178 -0.04043326 0.064559884 -0.13213
000130 e8 c8 0c 3e d0 20 f2 3c cb 0e 67 3e 04 57 24 3f
       0.13748515 0.029556662 0.22564237 0.64195275
000140 49 5b 35 3e fe 92 62 3e 8b 2b 46 be c3 4d 34 be
       0.17710604 0.22126386 -0.19352548 -0.17607789
000150 87 dd 54 3e 3d e5 4d be 75 25 ad 3c d5 81 d4 3e
       0.20787631 -0.20106979 0.021136025 0.41505304
000160 94 99 3f 3e d3 8a 7d 3e fa bf 8b 3e d1 2c 5a 3d
       0.18710929 0.24759988 0.27294904 0.053265397
000170 00 09 a6 3e b5 eb 81 3e 3a cd 0c be 51 45 f6 bc
       0.3242874 0.25375143 -0.13750163 -0.03006235
000180 e1 10 af bd 6e 2a 05 be 14 bd 6e be 6f 7d ae be
       -0.08548141 -0.13004467 -0.23314315 -0.34080073
000190 26 4f fd bd dc 92 14 be 12 a4 7f bd 48 73 52 3e
       -0.12368612 -0.14509147 -0.06241233 0.20551789
0001a0 f5 d2 25 be 04 f9 50 3e ea bc 6e 3e 29 a9 9f 3e
       -0.16193755 0.20407492 0.23314252 0.31183746
0001b0 3a 2f ac 3d 04 72 38 bf ac 0d ac 3d a4 38 b3 bc
       0.08407445 -0.72048974 0.08401045 -0.021877594
0001c0 d1 90 c3 3d fc 5b 91 3e f0 f3 01 be 1b 18 5d bd
       0.09549106 0.2839049 -0.12690711 -0.053978067
0001d0 12 e9 b8 3e ef b6 18 3e b5 65 96 3e 1f 6b d2 be
       0.3611532 0.14913534 0.2937447 -0.41097352
0001e0 dc 29 29 bb c0 d4 25 be 1d a8 8f 3e 2d ec 96 3e
       -0.0025812304 -0.16194439 0.28057948 0.29477063
0001f0 6d 5f 3c bd a5 bd 79 3c 6b ff 94 3d ed a4 a7 bd
       -0.045989443 0.015242969 0.072752796 -0.08185754
000200 77 ee 53 be b9 bb dd 3e ef 0c fa 3d d4 07 ae 3d
       -0.20696436 0.43307284 0.12209498 0.08497587
000210 b7 1f 37 3e 21 27 2c be bc d2 b2 3e 3d f7 73 3e
       0.17883192 -0.16811801 0.34926403 0.23824783
000220 8e 43 9b 3d 44 8d 84 be 15 b0 06 3e 11 14 ba 3e
       0.075812444 -0.25889027 0.13153107 0.36343434
000230 2b aa bb 3e 8e 5b 8e be 49 27 f4 bd 6d 56 4e 3e
       0.36653265 -0.27804226 -0.119215555 0.20150156
000240 2e 90 c5 3d 3c a6 e1 bd ab 51 4d be 37 aa a1 3e
       0.09646641 -0.11018035 -0.20050685 0.31575176
000250 55 05 37 3e b2 20 91 bd 0b 15 e9 bd 84 68 7b bd
       0.17873128 -0.07086314 -0.11380967 -0.06137897
000260 06 f9 a6 bd b0 ed 18 3e cf 91 73 3e 2a 86 33 be
       -0.08152966 0.1493442 0.2378609 -0.17531648
000270 a2 c2 ea bd 4c ef dc 3e ab 66 a8 3e 45 49 d2 3d
       -0.114629045 0.4315132 0.3289083 0.10267881
000280 62 e9 fb 3d f1 8a b2 3d 60 f8 57 be ca d7 a2 3e
       0.123003736 0.08717907 -0.21090841 0.3180526
000290 17 d2 60 3e a2 6c 41 be 2f 7c 6f 3e 28 95 54 bd
       0.21955143 -0.18889096 0.23387216 -0.05190006
0002a0 14 54 fa 3c b1 9e be 3e d4 06 fd bc 61 e9 6b 3c
       0.03055767 0.37230447 -0.030887045 0.014398904
0002b0 db 6f 6f be 63 cf 88 3d e6 ad 90 3e bd fc 84 bd
       -0.23382513 0.06680181 0.28257674 -0.064935185
0002c0 90 10 4c bd 50 89 b8 3e f6 34 51 3d f6 0d 8f 3e
       -0.049820483 0.3604226 0.051075898 0.2794034
0002d0 13 a1 23 3e af ab b5 bd 04 36 f0 bd 47 3e 4c be
       0.15979414 -0.08870637 -0.11729053 -0.19945632
0002e0 29 13 72 be 30 f5 8d 3e 92 f7 c5 bd dd f8 5b be
       -0.23640122 0.27726126 -0.09666361 -0.21481653
0002f0 7e 99 92 3d 38 b0 ac be 76 91 48 3e d5 fe 36 bd
       0.071581826 -0.33728194 0.19586739 -0.04467662
000300 8c f5 90 3e 67 47 b1 bd d1 ba 31 3e 95 dc 98 3e
       0.28312337 -0.08656197 0.17356421 0.2985579
000310 88 65 9e be d3 3c 57 be db 31 8e be 2e 54 9a bd
       -0.30936837 -0.21019296 -0.27772412 -0.07535587
000320 33 d4 cf bd ef a2 5e 3e 23 0c 9f 3d ff 47 a3 3d
       -0.10147896 0.21741842 0.07765987 0.079727165
000330 a8 f4 d2 bb 4a 43 41 bd 8e 20 c9 3e c8 22 f0 3d
       -0.0064378567 -0.047183312 0.3928265 0.11725384
000340 df 17 a4 3e 3e 9f 53 bf 38 b2 f0 ba 0f b1 50 bd
       0.32049462 -0.8266486 -0.001836366 -0.050950106
000350 5e a5 94 3e 20 ca a9 3e 57 76 0e 3e f3 a1 4b bc
       0.29032415 0.33162022 0.1391233 -0.012428748
000360 06 5d 4a be 99 17 82 3e b8 3d bd 3c 8e 2f 08 be
       -0.19762048 0.2540863 0.023100719 -0.1329939
000370 16 0a a0 bd 5e 35 86 bb e4 8b bb be 9f 58 44 3d
       -0.07814424 -0.0040957173 -0.36630166 0.04793608
000380 49 cc 11 3e 06 07 5c 3e e1 aa 10 3d bb 72 4b 3d
       0.14238085 0.21487054 0.035319213 0.049669962
000390 97 18 8e 3e ae 57 0e 3f 45 cc 1d 3e 35 c4 f2 bc
       0.27753136 0.5560254 0.15409954 -0.029634574
0003a0 d8 46 55 bb 86 ba ab 3e c2 e2 1f 3d 08 80 d1 3d
       -0.0032543447 0.33540744 0.039034612 0.10229498
0003b0 ce 22 28 be 21 e9 b3 be d6 b7 da bd c7 1c fc 3d
       -0.16419527 -0.351388 -0.10679595 0.12310176
0003c0 36 03 0a be e4 e6 ad be c8 7c 7a be 41 39 af 3e
       -0.13477787 -0.33965218 -0.24461663 0.3422337
0003d0 5a 02 60 be 26 69 7b bc 96 c7 f9 3d 30 5d bb 3e
       -0.21875897 -0.015344894 0.12196271 0.36594534
0003e0 32 30 24 3e bb d0 86 3e aa 88 5c 3e b2 b2 41 be
       0.1603401 0.26331124 0.21536508 -0.18915823
0003f0 76 51 f0 3d 53 ba 02 bc e8 dd 25 bd a4 98 57 3e
       0.117342874 -0.0079789935 -0.04049483 0.21054322

net.0.bias f4 [64]
000000 ba 97 65 3d 8b 5d e9 be 2a 54 ca 3e 60 c8 e4 3e
       0.0560529 -0.4557918 0.39517337 0.44684124
000010 19 cb 99 3e ad b0 c2 bd 27 9b ff 3d 68 a4 16 be
       0.30037764 -0.095063545 0.12480765 -0.14711154
000020 da 3e c0 bb 74 b0 a6 be 6d fd f9 bd d6 74 d2 39
       -0.0058668675 -0.32556498 -0.1220654 0.0004014137
000030 c3 e5 73 be b6 62 94 3d 47 6b 15 3f 44 9c f8 3e
       -0.23818116 0.0724539 0.5836682 0.4855672
000040 17 ab 0c 3d aa 40 fd 3e a4 b7 10 be 97 32 25 be
       0.03434285 0.49463397 -0.14132553 -0.1613258
000050 88 f9 66 3e 1c f0 07 3e f3 70 86 3e 24 f4 23 be
       0.22556126 0.13275188 0.26258048 -0.16011101
000060 70 52 72 be 93 e5 59 3e 02 d0 5c be e3 e3 0c 3f
       -0.2366426 0.21278982 -0.21563724 0.5503523
000070 68 f1 ce be a6 50 8b 3e 02 d1 95 3e 7e ba 02 3f
       -0.40418553 0.27209967 0.29261023 0.51065814
000080 72 1d 9e bd 3f a9 f8 3b dc 44 7b 3e ae 60 f5 3d
       -0.0772046 0.007588535 0.24537987 0.11981331
000090 d6 70 f1 3e b6 4c d6 3e 49 d6 cb be 1a e6 9a bd
       0.471564 0.418554 -0.39811924 -0.0756342
0000a0 fe ec 16 3d d9 a0 f5 3c d5 47 37 be 75 b3 fa 3d
       0.036847107 0.029983925 -0.17898495 0.1224126
0000b0 23 ea c2 3d 7a d9 9d 3e 96 88 e5 bd f4 f1 4e be
       0.09517314 0.30829984 -0.11207692 -0.20209485
0000c0 1a b5 b8 3d b2 92 c9 bc c3 4e a0 3d 69 ab 92 be
       0.090189174 -0.024606083 0.078275226 -0.286464
0000d0 15 5b cd bc 41 e7 d4 be 08 0b 88 bd b8 79 99 3d
       -0.025067845 -0.41582683 -0.06642729 0.07493919
0000e0 4b 99 13 3e 4b 00 14 3d 86 35 87 3e f8 66 84 3e
       0.14413945 0.036133092 0.26408023 0.2585981
0000f0 00 29 a2 be cc 36 66 3d d5 5b 1f bd c6 a9 68 bc
       -0.31671906 0.056204602 -0.038905937 -0.014200633

net.2.weight f4 [32, 64]
000000 79 c2 94 bd 23 e9 4f 3e e4 91 08 bd 4b 19 ae bd
       -0.07263655 0.20303778 -0.033342257 -0.08500918
000010 11 8a 8e bd 04 16 bc bc 90 83 1e bd 0a b4 e6 3d
       -0.06959928 -0.022959717 -0.038699687 0.112648085
000020 33 dd 91 bd 6a 5a 22 3e 13 3b 05 ba 4c 00 7e bd
       -0.071222685 0.15854803 -0.000508235 -0.062012002
000030 41 47 14 3e 1d 3b 7b 3c 96 44 3d be 4b 83 11 be
       0.14480306 0.015333918 -0.18483195 -0.1421024
000040 c7 6f c7 bd b6 35 8b 3d 4f 7c fd bc 5e 1c 2d 3e
       -0.09738117 0.06797354 -0.030943064 0.16905352
000050 73 55 7b 3d 9a 80 8e 3d 66 93 68 bd 76 1a dc 3d
       0.061360788 0.069581226 -0.056781195 0.107472345
000060 9e f9 ea 3a bc 63 d7 3d 3b 1e e0 3d 9d 1b 6d bd
       0.0017927175 0.1051707 0.10943266 -0.057887662
000070 12 06 58 3e 60 74 e4 3d c9 65 96 bc ea b8 1b be
       0.21096066 0.11155009 -0.018359082 -0.15207258
000080 bb bc 44 3d 49 33 ad 3d 9e fa 88 3e 72 cf df bd
       0.04803155 0.084570475 0.26753706 -0.10928239
000090 82 c1 91 bc 7c db 87 3d dd 84 8c bb fc 63 c8 bd
       -0.017792467 0.0663366 -0.0042882995 -0.097846955
0000a0 dd 2d 2b be 8e 59 a8 bc 96 3a c9 bc d4 b2 82 bd
       -0.16716714 -0.020550516 -0.024564069 -0.06381765
0000b0 fd 90 8b 3d 2f d1 7e bd 1b 46 2c 3d 57 dc bc bb
       0.06814764 -0.06221121 0.042059045 -0.0057635712
0000c0 e7 54 17 3d de a8 ef 3d b2 9b 4e bd 6a 2f 3e 3e
       0.036946204 0.11702131 -0.05044145 0.18572775
0000d0 79 7f ed bd e1 20 70 3c 4a b8 c7 3d 8d 17 54 bd
       -0.11596579 0.014656276 0.09751947 -0.051780272
0000e0 ee 55 87 bd 45 0c 86 bd 16 80 00 3e 61 e7 92 3d
       -0.06608187 -0.06545309 0.12548861 0.07173038
0000f0 d9 0b 97 bc 6a 4d 00 bd ee a9 52 bd e4 7b 3d bb
       -0.018438267 -0.031323828 -0.05143159 -0.0028912956
000100 83 1f 5c be 81 a0 04 bd 27 4d ad 3d d3 ce 84 3e
       -0.21496396 -0.03237963 0.08461981 0.25939044
000110 0c 17 92 bd 7f 4a 8a 3d 6e e1 83 be 5f 11 65 3e
       -0.07133302 0.0675249 -0.25757927 0.22369908
000120 55 96 b6 3d b0 50 dc bd b3 49 33 be ff 34 a4 bd
       0.08915392 -0.107575774 -0.17508583 -0.08017921
000130 a0 e7 2f 3e 1e 4c 1c 3e 83 a1 0e bd a9 60 00 3d
       0.17178202 0.15263411 -0.034822 0.031342182
000140 e0 95 04 3e cd 04 3d 3e a9 7e 6b 3c 61 e1 c5 bd
       0.12947798 0.18458863 0.01437346 -0.09662128
000150 f3 a6 e0 bd 35 e0 12 3d 7b 68 cf 3d 0d a0 31 3e
       -0.10969343 0.03585835 0.1012735 0.17346211
000160 43 61 d9 3d f4 8a a3 bc 41 6c ac be 22 02 49 bc
       0.10614254 -0.019963719 -0.3367634 -0.012268575
000170 26 f3 29 3d 00 03 67 3b 9c 28 43 bd 79 d5 59 3d
       0.04149165 0.003524959 -0.04764615 0.0531821
000180 c8 7e 4c 3e b6 2b 9d 3e 8a de 19 be cc e0 80 be
       0.19970238 0.3069741 -0.15026298 -0.25171506
000190 00 d7 43 3e 83 3e a1 bd f0 fe 3b bd 51 59 bc 3d
       0.19124985 -0.07873251 -0.045897424 0.09196723
0001a0 6d 2a 4a 3d 79 36 cb bd cd 8c 64 3d ce 47 f1 bd
       0.049356867 -0.09922499 0.05579834 -0.11781274
0001b0 df c7 33 3e dd 0b 72 b9 7f 6f bb 3d f8 e7 5c 3e
       0.17556714 -0.00023083338 0.091521256 0.21572864
0001c0 1d 22 32 3e e4 ac 60 bd 08 19 75 bc e7 23 43 3e
       0.17395826 -0.05485238 -0.014959581 0.19056664
0001d0 57 8a 71 3e 77 18 99 be e8 84 98 3e 39 d4 15 3e
       0.23587929 -0.29901478 0.297889 0.14631738
0001e0 f6 c3 92 bd f5 62 7e be 0b dc 70 3c 19 b1 4f 3e
       -0.07166283 -0.24842437 0.0147009 0.20282401
0001f0 18 b4 b8 3d c6 a2 bd 3d 52 05 2b 3e b4 13 5e 3c
       0.09018725 0.09259562 0.16701248 0.013554502
000200 93 10 e4 3c 25 f7 9b 3e 23 b1 12 be 61 fd c4 bd
       0.027839934 0.30461994 -0.14325385 -0.09618641
000210 79 57 c3 bc cb 26 44 3e 57 73 30 bd 74 20 4e bd
       -0.023845421 0.19155423 -0.043078747 -0.05032392
000220 1a c2 65 3d 7e b5 88 3d d2 f0 c7 3c f1 28 25 3e
       0.056093313 0.06675242 0.024406824 0.16128899
000230 90 fe 35 3e 17 d5 f1 3d b8 e1 85 be 30 82 67 be
       0.17772889 0.11808222 -0.26148772 -0.22608256
000240 ec 4d ae bd 17 18 2c be 5e c7 ad 3a 5c 83 de 3d
       -0.08510956 -0.16806065 0.0013258269 0.108648986
000250 d5 6e cc bd a2 d9 5e 3d 00 4e 3d 3e 0d fb 4b 3e
       -0.09982077 0.05440677 0.18486786 0.19919987
000260 0f f3 0e 3e d0 bd 6a bc 04 9b 82 3d 24 32 d3 bd
       0.13959907 -0.014327481 0.06377223 -0.10312298
000270 43 9b b7 bc 5a 11 b6 bd 66 f2 b6 3d 04 80 10 ba
       -0.022412902 -0.08890028 0.089329526 -0.000551224
000280 b4 50 06 be 7c dd 84 3e 48 a8 49 3e a2 84 a0 3d
       -0.13116723 0.2595023 0.196931 0.07837798
000290 79 5c 99 bc ae 4d 08 bd ef c8 86 3d b1 81 c1 bd
       -0.018720852 -0.033277206 0.06581294 -0.09448565
0002a0 a3 be d1 3c aa a4 4d 3e 7d 6c 5e 3d e2 58 1e be
       0.025603598 0.20082346 0.05430268 -0.15463594
0002b0 9b f0 5f 3b ff 7b 06 be 75 47 21 3e 94 25 4c 3e
       0.0034170512 -0.13133238 0.15749915 0.1993621
0002c0 0a 76 3e 3d 77 ed 31 3e a7 6d 6c 3d 61 cf 20 3e
       0.04649929 0.17375742 0.05772176 0.15704109
0002d0 7e ce 24 3e 53 92 22 3d 19 ca 83 bc 84 6a 22 bc
       0.16094396 0.039690327 -0.016087579 -0.009913091
0002e0 d3 e8 db 3d 2f a2 2a 3e e2 53 0d 3e ec a3 80 3e
       0.10737767 0.1666343 0.1380153 0.25125062
0002f0 fc d3 5f bd 01 00 f7 3d 20 c6 94 bc 47 5c 25 3d
       -0.054645523 0.120605476 -0.01816088 0.040371206
000300 94 2c 4a 3d 84 71 cb bd bd e2 0d bc 24 7b a3 3c
       0.04935892 -0.09933761 -0.008660016 0.019956179
000310 c4 6b 91 bd fb a7 fe 3d 67 1e 5b 3b 46 2e fd 3d
       -0.07100633 0.124343835 0.003343487 0.123623416
000320 03 76 14 3d 7d 5b 05 be dc b5 d1 bc 84 bf 70 bc
       0.036245357 -0.13023181 -0.025599413 -0.014694098
000330 e4 fd 61 3d a8 08 2b 3b 0c 09 b0 3d 83 0a 88 3e
       0.05517377 0.0026097689 0.085954756 0.2657052
000340 ef 17 60 3e 16 1b 2b bc f2 cd 94 3d 81 18 a9 3d
       0.2188413 -0.0104434695 0.072658435 0.08256627
000350 01 ae 17 3d 40 6d a5 3c 81 c5 2a 3e 63 e6 f0 3d
       0.037031177 0.020193696 0.16676904 0.11762693
000360 e6 cf 0c bc 2d 9a c5 bd 34 72 21 be 86 ee d9 3d
       -0.008594489 -0.09648547 -0.15766221 0.10641198
000370 2e 21 85 bc 70 5d 81 bd 1b da f3 bd 71 4a 47 3e
       -0.016251173 -0.0631665 -0.11906835 0.19461991
000380 f2 c6 b7 3d 90 8c b4 3c cc 7d ee bd a1 51 5a 3c
       0.08973493 0.022039682 -0.116450876 0.013325126
000390 b5 18 ae bd 1f 3b ee bd c8 03 33 3d 14 bf 43 3e
       -0.08500806 -0.1163237 0.043704778 0.1911586
0003a0 57 1f c0 3d b6 0c 7e bd b4 77 1d 3d ed 20 66 be
       0.093809776 -0.06202384 0.038444236 -0.22473498
0003b0 f3 c4 39 bd 38 45 a6 bd f1 35 94 3d d6 a7 0a 3d
       -0.04535384 -0.08118671 0.07236851 0.033851467
0003c0 b6 a3 00 3e 58 ea 90 bc 89 e4 bd bd b9 f1 56 3d
       0.12562451 -0.017689869 -0.09272105 0.05247662
0003d0 84 a4 23 3e 51 ed 97 bc f3 01 3d 3d ec 58 18 3e
       0.15980726 -0.018545778 0.046144437 0.14877671
0003e0 35 53 9a bc 0b 7d 41 be 66 9e 96 3d 17 13 9a bd
       -0.018838504 -0.18895356 0.07354431 -0.07523172
0003f0 09 da 30 3d 4e ab 2a bd 68 e8 f4 3d 95 9e 11 be
       0.043176685 -0.041667275 0.119583905 -0.1422065

net.2.bias f4 [32]
000000 cd 3c 39 be e2 0d c2 bd 4b 00 7f be cf 76 01 bd
       -0.180896 -0.09475304 -0.24902456 -0.031607445
000010 00 2c f5 ba 3e 86 88 be a7 7c 45 be 56 cf 25 3d
       -0.001870513 -0.2666492 -0.19285832 0.040480934
000020 c3 b4 40 be 9d 5a 17 3e b8 56 6c be 6f 20 e0 3d
       -0.18818955 0.1478066 -0.23079956 0.10943686
000030 21 ee 1e 3e ac 02 d8 bd c2 04 6b 3d bc 6a 83 be
       0.15520526 -0.105473846 0.057377584 -0.2566737
000040 2a a5 27 3d 57 4e cd 3d 59 92 30 be 42 e5 ba bc
       0.040928997 0.10024708 -0.17243327 -0.022814397
000050 9c 6a 23 be 56 e0 92 3d ec 5b eb 3d a2 54 89 bd
       -0.15958637 0.07171695 0.11492142 -0.067055956
000060 6a ec 5e 3e 2d 76 50 3d 34 c5 2c 3d 31 1f 66 3d
       0.21769872 0.05089395 0.042180255 0.05618209
000070 01 88 72 3e eb 7e 25 3e df d6 1d 3e 4d a8 77 3e
       0.23684694 0.16161697 0.15413998 0.24185295

net.4.weight f4 [16, 32]
000000 77 d3 97 be 46 a0 6a 3d 68 a9 37 be 35 ef 02 3e
       -0.29653522 0.057281755 -0.17935717 0.12786563
000010 e3 ae 1e 3d 07 6c 89 bd b9 c0 c7 3c 07 0c 3d bd
       0.038741004 -0.06710058 0.02438389 -0.04615405
000020 0c cc bc bd de 95 98 bd 64 6b f3 bd 08 17 77 3d
       -0.09218606 -0.0745046 -0.118857175 0.0603247
000030 68 d3 8a bd e0 6c 05 3e bf ee 82 3b 18 c4 3d 3c
       -0.06778604 0.13029814 0.003995746 0.011582397
000040 2b 3a 45 3e ce c7 3a 3e fb b1 23 be c9 cf e8 3d
       0.1926047 0.18240282 -0.15985863 0.11367757
000050 94 00 4d be b2 2b 18 3e 9d fe 45 be 9f 86 0c 3e
       -0.20019752 0.14860418 -0.19335409 0.13723229
000060 ac 61 2b 3e cc 2b 53 be 7a 39 37 3e 25 d6 a5 bc
       0.16736478 -0.20622176 0.1789302 -0.020243714
000070 88 79 04 3e 0b 8e 09 3e a9 78 14 3e 01 5c 21 3e
       0.12936985 0.13433091 0.14499153 0.15757753
000080 4f 65 09 bb e0 be 1b 3e ef f8 b3 3e 38 fd ee bd
       -0.0020964926 0.15209532 0.3515086 -0.116693914
000090 25 bd 20 be 42 65 8c 3e 63 1e 44 3e ad ae 1b be
       -0.15697153 0.27421004 0.19152217 -0.15203352
0000a0 79 49 18 bc 3b bf 4e 3e 53 8c 76 3e 3b 47 81 be
       -0.009294861 0.20190136 0.24076967 -0.25249657
0000b0 b4 dc 7d bd 1f 56 85 3c 3c ee 5a 3e bb c4 b0 3d
       -0.061978057 0.016276417 0.21379942 0.08631273
0000c0 35 78 c8 3d cb 45 8a 3c 19 49 97 3d 84 0d 82 3d
       0.09788553 0.016878983 0.07386989 0.06350234
0000d0 ff b5 0a bd 0c e3 d9 bd 98 92 23 3e 35 82 75 bd
       -0.03386497 -0.10639009 0.1597389 -0.05993863
0000e0 6f 07 2a 3e 55 61 99 3e 75 b6 41 bd 43 24 a1 3d
       0.16604398 0.2995707 -0.047293145 0.078682445
0000f0 7c d4 09 be 2f b1 17 be 11 00 46 bd 65 03 6b be
       -0.13459963 -0.14813684 -0.048339907 -0.22950514
000100 61 7d 87 3e b3 4c 96 3d 33 78 a6 3e ae 6a ae bd
       0.26462844 0.07338848 0.3251358 -0.08516441
000110 ca 96 98 bd cb c3 a7 3d 68 fc ae 3e fe e5 8a be
       -0.07450636 0.081916414 0.34176946 -0.27128595
000120 ba a0 33 3e 12 e8 db 3c df 39 4b 3d 68 05 97 bd
       0.17541781 0.026844058 0.049615737 -0.07374078
000130 f9 be 03 bd 85 c5 31 be 3d 2c 1d 3e 6c 60 37 bd
       -0.032164548 -0.17360504 0.15348907 -0.04476969
000140 b9 1b 37 be 2e b2 ba 3d 87 27 f9 3d 2d a0 42 3e
       -0.17881669 0.09116016 0.12165742 0.19006415
000150 70 1f 1f 3d da f8 eb 3a c0 03 83 be 40 dc 97 bd
       0.03884834 0.0018003241 -0.255888 -0.07415056
000160 bc 18 86 be 19 81 2b 3e d4 5f 27 3d ed 60 ae 3d
       -0.26190746 0.16748466 0.040862873 0.08514581
000170 05 bf cd 3c 28 d6 eb bd fc 66 6c be e5 7b bc 3d
       0.0251155 -0.115154564 -0.2308616 0.092033185
000180 68 5b 0c be 57 95 dd be 9c 23 0a be a6 5f ed bc
       -0.13706744 -0.43278 -0.13490146 -0.028976273
000190 ac aa 2e be 20 2b b1 3d c8 cf 0f 3d 7c 86 86 3e
       -0.17057294 0.086508036 0.035110265 0.26274478
0001a0 70 a0 45 bd 7f ff 15 3d cb b8 19 be 9f 91 84 3e
       -0.04824871 0.036620613 -0.15011899 0.2589235
0001b0 a5 77 44 bc f2 37 98 bb e1 0a 24 be 63 d9 1c 3e
       -0.011991416 -0.004645341 -0.16019775 0.15317301
0001c0 39 96 ee bb b9 b2 88 3c 9f 50 89 3d 63 bd ee bd
       -0.0072810915 0.016686784 0.067048304 -0.116572164
0001d0 9c 05 bb 3c 4b 42 96 bd 6b a3 b6 3e c2 8c 5f 3d
       0.022829823 -0.07336863 0.35671553 0.054577596
0001e0 8c dc 19 bd 1c 1f 18 3e da e2 53 3d 57 74 1f 3d
       -0.037563846 0.14855617 0.051730014 0.03892931
0001f0 36 d2 d8 3d 1e b5 bb bc 8b 90 77 bc 63 4e 4b bc
       0.105869696 -0.022913512 -0.015110145 -0.012408826
000200 5b 9b 5e 3e e9 5d a8 3d 6d 09 a7 3e 1f 9f d0 3d
       0.21738951 0.08221037 0.3262438 0.101866
000210 36 52 df 3d 34 3c 4d bd d8 30 17 3e bf 9f 9b be
       0.10904352 -0.050106242 0.14764726 -0.30395314
000220 fa cc f2 3c 78 09 23 3d 2a d8 d9 3d fc 03 10 be
       0.029638756 0.039803952 0.10636933 -0.1406402
000230 11 8d 87 bd 3a 57 40 3d 2e d1 8e 3d 75 6a 18 3e
       -0.06618703 0.046958186 0.069734916 0.1488436
000240 32 17 af 3d c8 8f b9 3d a1 22 f1 3d 82 88 16 3e
       0.08549346 0.09060627 0.11774183 0.14700511
000250 9b 8d 96 3d 07 df 49 3d a0 e2 a3 be d4 16 63 3e
       0.07351228 0.04928496 -0.3200884 0.22176677
000260 b7 fd b8 bd 6e 25 ce 3c 2d 64 9b 3d 33 67 81 bd
       -0.09032767 0.025164332 0.075874664 -0.06318512
000270 2e b3 e8 bd 85 02 8f bd 97 32 cb bc 51 fc 02 bd
       -0.11362301 -0.069829024 -0.024804397 -0.03197891
000280 c2 7a 77 be 90 a7 f1 be e0 17 e9 3d 9f eb 2a be
       -0.24167922 -0.47198153 0.11381507 -0.16691445
000290 a4 b1 2c bc 7e b4 fb 3b 65 d2 d5 bd 96 97 46 3e
       -0.0105404 0.0076814285 -0.1044052 0.19393763
0002a0 7a be 1e 3d ba d1 34 3e 7a 0d 99 bc fc 02 1e 3d
       0.03875587 0.1765813 -0.018683184 0.038577065
0002b0 b1 84 1b 3e 60 ac 7d bd 8c b4 ad 3c 34 e1 b4 bd
       0.15187337 -0.061931968 0.021204256 -0.088320166
0002c0 49 2f 55 3e 91 d6 de bd 4a 51 40 3d 5c e1 45 bc
       0.20818819 -0.10880769 0.046952523 -0.012077656
0002d0 1a a8 08 3e ce 37 9e be 54 30 89 3e c2 66 b1 bd
       0.13345376 -0.3090195 0.26794684 -0.086621776
0002e0 9c 5d 30 3e fe d1 72 3e c5 c1 62 bd 6d 4c 62 bd
       0.17223209 0.23712918 -0.055360574 -0.055248667
0002f0 1d 1b 35 3e 04 db 8d bd d3 c2 37 3e aa 9f 38 bd
       0.17686124 -0.069265395 0.17945413 -0.045074143
000300 61 fb 89 3d a4 d2 97 be 82 86 47 be f5 34 6f bb
       0.067374 -0.29652894 -0.19484904 -0.003650007
000310 4a 6a a8 3c c1 84 19 3e 18 72 03 be 34 2d 6a 3c
       0.020558495 0.14992048 -0.12836492 0.014293004
000320 fe 12 0e bd d1 31 31 3d 6d 36 34 3c 13 25 03 bd
       -0.03468608 0.0432604 0.010999304 -0.03201778
000330 c2 f9 35 3e d5 ab 9d 3d e2 de eb 3b e9 4d 07 3e
       0.17771056 0.0769879 0.0071982006 0.13213314
000340 18 b4 32 3e 26 36 f4 bd df 85 03 bd 60 cc c7 bc
       0.17451513 -0.119243905 -0.03211009 -0.024389446
000350 ce 66 0c 3e 10 3d 99 bd 02 5c be 3c 8b 45 36 bd
       0.13711092 -0.0748235 0.023237232 -0.044499915
000360 20 fc 2c 3e b3 9f 84 bd bc 2c c3 3d 53 63 5a be
       0.16893053 -0.06475773 0.09530017 -0.21326952
000370 27 97 2e 3e 4d 82 4c 3d f9 de 02 bb 00 e3 bd 3d
       0.17049848 0.049928952 -0.0019969328 0.092718124
000380 c4 5d b1 be 69 91 df 3b b9 4d 34 be 76 41 6b bd
       -0.3464185 0.006822754 -0.17607774 -0.057435475
000390 57 a8 c1 3d 18 6e 3d be 67 d9 55 bd 56 42 46 3e
       0.094559364 -0.18499029 -0.052209284 0.19361243
0003a0 b4 4c f6 bd bf fa 23 be df 7f 98 bc 33 0d 84 3e
       -0.12026349 -0.16013621 -0.018615661 0.2579132
0003b0 a8 84 51 be 0f 76 90 bd 1f ee a6 3c bf 7b c5 3d
       -0.2046076 -0.07053768 0.020377217 0.09642743
0003c0 0b 14 2b 3e 93 e1 07 3e c4 7a e1 bd f6 1c 37 3e
       0.16706865 0.13269643 -0.11009744 0.17882141
0003d0 fc d3 39 3c 5e 8b cc bd 62 83 2b bc 49 45 c2 bd
       0.011342045 -0.0998752 -0.010468336 -0.09485871
0003e0 2a 02 e7 3d 7d e3 d0 bd e0 ec 99 bc a7 46 7d 3d
       0.1127971 -0.1019964 -0.018789709 0.061834957
0003f0 4e a3 2b 3e 24 13 80 3e 6b 13 0f 3e 46 8d 33 3c
       0.16761515 0.25014603 0.13972251 0.010958975

net.4.bias f4 [16]
000000 f0 06 d3 3c 8b 1f 2c be 3e 85 7b 3d b6 89 15 3e
       0.025760144 -0.16808908 0.061406367 0.14603314
000010 45 e1 7c be b8 b7 61 3e b2 ba 34 bb dc 92 99 3e
       -0.24695309 0.2204274 -0.00275771 0.29994857
000020 f4 ec 93 3d 58 b0 f1 bd c4 50 8a bd cc 43 e7 bd
       0.072229296 -0.11801213 -0.06753686 -0.11292228
000030 34 62 60 be 12 82 82 3d bd b4 a1 3d 3b 04 4b 3d
       -0.21912462 0.06372465 0.07895801 0.04956458

net.6.weight f4 [3, 16]
000000 94 f0 6f 3d 52 9b 85 3d ab 31 e9 be c1 fa 3e 3e
       0.058579043 0.065237656 -0.45545706 0.18650343
000010 2a a1 38 be 78 77 51 3e 74 03 85 3e 0f 27 c7 bd
       -0.18030229 0.2045573 0.25979197 -0.09724247
000020 db d8 b4 bb 21 ec c1 be 9a de a3 3d 8c 82 76 3d
       -0.0055190152 -0.37875465 0.08001442 0.060183093
000030 e1 8d c4 be 00 3d 78 be fa 7c cc 3d 4d d2 98 3e
       -0.38389495 -0.2424202 0.09984775 0.29847947
000040 3f 8d 9e 3e e7 fd b4 bd 16 90 af be 8d d5 81 be
       0.30967137 -0.088374905 -0.34289616 -0.2535824
000050 90 ec 74 3d 12 cf da be 48 34 1e be 4b 86 8d bd
       0.059795916 -0.42736107 -0.15449631 -0.0691038
000060 3b 87 3a 3d 31 ea b7 3c 65 08 04 bd b4 96 89 be
       0.045539122 0.022450538 -0.03223457 -0.2687279
000070 9d 77 b3 bd 12 46 68 3e 5d 25 67 be 7d cb 4f be
       -0.08763049 0.2268298 -0.22572847 -0.20292468
000080 4d 74 94 be 00 ee a6 3e 92 52 2e 3e 41 ef ed bd
       -0.2899498 0.32603455 0.17023686 -0.116179
000090 18 0c 81 3e 8d 0b 4d be f6 03 bc bd 7f b8 a4 be
       0.2520454 -0.20023938 -0.09180443 -0.3217201
0000a0 17 55 97 be e3 55 34 3e 57 17 1f bd 70 40 81 3e
       -0.29557106 0.17610888 -0.038840618 0.25244474
0000b0 eb 87 8b 3e e2 60 52 bd 18 89 e1 3d a0 d6 5a be
       0.27252135 -0.051361926 0.11012477 -0.21370935

net.6.bias f4 [3]
000000 10 67 42 be 3f c3 fb bc c0 ec 53 3c
       -0.18984628 -0.030732749 0.012934864
